experiments/cartpole/models/ddqn_cartpole.pt (torch, 8157 bytes, 6 tensors)

fc1.weight f4 [32, 4]
0	0xbe8740ba	-0.2641657
1	0xbe7c7e67	-0.24657594
2	0xbebd4801	-0.36968997
3	0xbeb873ab	-0.36025748
4	0x3f0f5c98	0.5600066
5	0xbccc3320	-0.024926722
6	0xbeffbb9e	-0.49947828
7	0xbc86d1aa	-0.016457397
8	0xbdf8e07c	-0.12152192
9	0x3f241a41	0.6410256
10	0x3ea5cf6b	0.3238481
11	0x3e30736d	0.17231531
12	0x3f131e17	0.5746779
13	0xbebfa616	-0.374314
14	0x3e937acf	0.28804633
15	0xbec35683	-0.3815194
16	0x3d8deda7	0.06930094
17	0x3f3a82a3	0.72855586
18	0x3e8fbda3	0.2807437
19	0x3e0cc101	0.137455
20	0xbe43fd1a	-0.1913952
21	0xbd212b50	-0.039347947
22	0xbcaf69fa	-0.021412838
23	0x3df73aad	0.120717384
24	0x3e8e1793	0.2775236
25	0x3e8bd130	0.27308035
26	0x3ec7961b	0.3898171
27	0x3eaa40b8	0.332525
28	0x3ec4efa6	0.38464087
29	0x3e974c17	0.2955024
30	0x3ce24446	0.027620446
31	0xbeb108b4	-0.34576952
32	0x3e5305f2	0.20607737
33	0x3ed350b2	0.41272503
34	0xbd65dbe7	-0.05611792
35	0x3e89e197	0.26929924
36	0x3ee201ae	0.44141906
37	0x3db3459f	0.087535135
38	0x3eae2f8b	0.34020647
39	0x3c311eb7	0.010810546
40	0x3f05f5f8	0.52328444
41	0x3e641986	0.22275361
42	0xbecc8874	-0.39947855
43	0x3ede3cc4	0.43405735
44	0xbed87350	-0.42275476
45	0xbf034586	-0.5127796
46	0x3e911c87	0.28342077
47	0xbebac552	-0.36478668
48	0x3eae1712	0.34001976
49	0x3d86da31	0.065845855
50	0xbf3a45ee	-0.72762954
51	0xbd0f2a33	-0.034952354
52	0x3e9cc1e1	0.30616668
53	0xbe1a6443	-0.1507731
54	0x3eb51fc6	0.35375804
55	0x3e706cb0	0.23478961
56	0xbda69285	-0.08133415
57	0xbe28fe24	-0.16503197
58	0xbf0ebe06	-0.557587
59	0xbed7c43a	-0.42141896
60	0x3e0a0eae	0.13482162
61	0x3ded81d2	0.11597027
62	0x3f302b1a	0.6881577
63	0x3eb7a9cd	0.35871735
64	0x3e38d08f	0.18048309
65	0x3dfcd865	0.123459615
66	0x3f5d9809	0.8656011
67	0x3e345176	0.176092
68	0xbe46a638	-0.19399345
69	0x3c5f7a28	0.013639964
70	0xbd8ce803	-0.0688019
71	0x3dc2774f	0.094954126
72	0x3ede2151	0.43384793
73	0x3ec62b22	0.38704783
74	0xbea8aebf	-0.3294582
75	0x3d273fbc	0.040832266
76	0xbde8d0fe	-0.11367987
77	0xbe8b70bb	-0.27234444
78	0xbf0439d2	-0.51650727
79	0xbeffdbce	-0.49972385
80	0x3f16237c	0.58647895
81	0x3e607eef	0.21923421
82	0xbf42843e	-0.75983036
83	0x3c4b7e71	0.012420283
84	0x3ef44117	0.4770591
85	0xbf3f947f	-0.7483596
86	0xbe332193	-0.17493276
87	0xbe160ca1	-0.14653255
88	0xbe9910e7	-0.29895708
89	0xbebdc692	-0.3706556
90	0x3f369e7c	0.7133558
91	0x3e0b69d6	0.13614592
92	0x3ed94ecc	0.4244293
93	0xbe3da59e	-0.18520209
94	0xbeb5e068	-0.3552277
95	0xbefa07f4	-0.48834193
96	0xbd9c135f	-0.07620882
97	0xbea759f6	-0.32685822
98	0xbe61ae8e	-0.22039244
99	0x3e519e34	0.20470506
100	0x3e1f92c1	0.15583326
101	0x3f3f4d08	0.74726915
102	0x3e170209	0.1474687
103	0x3e546f82	0.20745662
104	0x3edbaa5e	0.42903417
105	0x3ed599cd	0.41718903
106	0xbf0fa9ee	-0.5611867
107	0x3d8b1cec	0.06792626
108	0x3dd1592a	0.10222085
109	0x3c3b5f7a	0.011436338
110	0x3e80fa7a	0.25191098
111	0xbbc57371	-0.0060257246
112	0x3e7625db	0.24037878
113	0xbda9f3fb	-0.08298489
114	0xbf4e7224	-0.80642915
115	0xbe6cf44a	-0.23140064
116	0xbd9e3764	-0.07725409
117	0x3f171e25	0.5903037
118	0x3dd85ded	0.1056479
119	0x3e05c1de	0.13062236
120	0x3f09f223	0.53885096
121	0xbbafe771	-0.005368166
122	0xbf37558c	-0.7161491
123	0xbe4e00f4	-0.20117551
124	0xbeb1f65f	-0.3475828
125	0xbec1b7ee	-0.3783564
126	0xbd9457a0	-0.07243276
127	0xbcbbded3	-0.0229334

fc1.bias f4 [32]
0	0xbeb3c3ca	-0.35110313
1	0xbee32139	-0.44361284
2	0x3f210fb0	0.6291456
3	0xbefa6276	-0.48903245
4	0xbf35ff94	-0.71093106
5	0x3f221983	0.6332018
6	0x3ece0e1a	0.40245134
7	0x3eb86c28	0.36020017
8	0xbe1092d2	-0.14118508
9	0xbf1f04b7	-0.6211657
10	0x3cce9b54	0.02522055
11	0x3f3b78b7	0.7323107
12	0xbf37ce2d	-0.71798974
13	0xbe2850e6	-0.1643711
14	0xbeebbbe9	-0.46041802
15	0xbea2b83f	-0.31781194
16	0xbe86bb05	-0.2631456
17	0x3ef24582	0.47318655
18	0x3f17e82e	0.59338653
19	0xbe00aa51	-0.1256497
20	0xbf0b7fab	-0.5449168
21	0xbf3c50c0	-0.73560715
22	0xbc2e01ca	-0.010620544
23	0x3f017a8b	0.5057761
24	0x3efca29d	0.49342814
25	0x3f1af546	0.6053051
26	0xbe539878	-0.20663631
27	0x3f15948e	0.584298
28	0x3db13343	0.086523555
29	0xbf28f7ee	-0.6600331
30	0xbf188a89	-0.5958639
31	0xbec8eac9	-0.39241627

fc2.weight f4 [32, 32]
0	0x3e7eb161	0.24872352
1	0x3eb19490	0.34683657
2	0xbee6ed44	-0.45102894
3	0xbd706ab7	-0.05869552
4	0x3d0f75ae	0.035024337
5	0xbe9d39f1	-0.30708268
6	0xbe1e0a49	-0.15433611
7	0xbe1ceec6	-0.1532546
8	0x3e4a3ed7	0.19750534
9	0xbd78d47f	-0.060749527
10	0xbd99ce11	-0.07510007
11	0x3c62f8a6	0.013853228
12	0x3ebd012d	0.3691496
13	0xbba7a5ef	-0.0051162164
14	0x3d0489ec	0.032358095
15	0x3d2f3a86	0.04278042
16	0x3e07c0cc	0.1325714
17	0xbe8f2272	-0.27955967
18	0x3c58ac28	0.013224639
19	0x3e6f5df8	0.2337569
20	0x3f1271a3	0.57204646
21	0x3e4a02b2	0.1972759
22	0x3def7c48	0.11693627
23	0xbd33c7a6	-0.04389157
24	0xbe1f7fe4	-0.1557613
25	0xbe43294c	-0.19058722
26	0x3e6078e8	0.21921122
27	0xbe94275b	-0.28936276
28	0x3e7c55d2	0.24642113
29	0x3dc5f284	0.09665397
30	0x3e2b5660	0.16732168
31	0x3e85b575	0.26115003
32	0x3e0a4631	0.13503338
33	0x3eec03be	0.46096605
34	0xbe51dc98	-0.20494306
35	0x3dff5df3	0.12469091
36	0x3c1726b6	0.009225538
37	0xbd2eb16e	-0.04264968
38	0x3dd15930	0.10222089
39	0x3e11626d	0.14197703
40	0x3e11f2e4	0.14252812
41	0x3e7e1560	0.24812841
42	0xbcc252d2	-0.023721132
43	0x3db7fb9f	0.0898354
44	0x3ec1080b	0.3770145
45	0x3e336717	0.17519794
46	0x3dda81fc	0.10669324
47	0x3e02fa72	0.1279085
48	0x3bc76c88	0.006085936
49	0xbe0c482a	-0.13699403
50	0x3cd01af4	0.025403477
51	0xbdeb7598	-0.114970386
52	0x3f0048fb	0.5011136
53	0x3e923144	0.28553212
54	0xbd9afacf	-0.07567369
55	0x3e18a029	0.14904846
56	0x3db58b6d	0.08864484
57	0xbd47332d	-0.04863279
58	0x3e300020	0.17187548
59	0xbeaba838	-0.33526778
60	0x3e05bbf4	0.1305998
61	0x3e684532	0.22682646
62	0x3e96bafc	0.29439533
63	0x3e9c228c	0.30495107
64	0xbc950fb2	-0.01819596
65	0xbe5f38b7	-0.21798979
66	0x3dcd9d29	0.100397415
67	0x3ce31fdf	0.027725158
68	0xbe9fd99e	-0.31220716
69	0x3e41a184	0.1890927
70	0x3bd841b4	0.0065996293
71	0xbe0fd8c9	-0.1404754
72	0xbe37add5	-0.17937405
73	0xbe06160f	-0.13094352
74	0x3d7f09d5	0.062265236
75	0x3c8a628d	0.016892696
76	0xbe1b3144	-0.15155512
77	0xbda58d91	-0.08083642
78	0x3ded9b7a	0.116019204
79	0x3d5588b6	0.05213233
80	0xbe096035	-0.13415606
81	0x3e2eeda0	0.17082834
82	0x3db6fff8	0.08935541
83	0x3d64f8d3	0.05590136
84	0xbeb94b49	-0.3619025
85	0xbe2bd48d	-0.167803
86	0xbd7d8007	-0.061889675
87	0x3da1d500	0.07901955
88	0xbcd31e9f	-0.025771437
89	0xbcbc1b1d	-0.022962147
90	0xbd122a2d	-0.035684753
91	0xbc2b3404	-0.010449413
92	0xbdd5405e	-0.10412668
93	0xbd8ce168	-0.0687893
94	0xbe27de45	-0.16393383
95	0xbe760fa7	-0.24029408
96	0xbdb44f00	-0.088041306
97	0xbe4e7673	-0.20162372
98	0x3e8b117b	0.27161774
99	0xbcce0db0	-0.025153011
100	0xbeb102ab	-0.34572348
101	0x3d8283bf	0.06372785
102	0x3e080e85	0.13286789
103	0xbd67c79c	-0.056586847
104	0xbdf40c2e	-0.119163856
105	0xbe90f934	-0.28315127
106	0x3b120bf2	0.0022284952
107	0x3d391433	0.04518528
108	0xbcf448c2	-0.02981985
109	0xbd9d40e2	-0.07678391
110	0xbe0e5a00	-0.1390152
111	0xbe84b4b8	-0.25919127
112	0xbdf0e0b8	-0.11761612
113	0x3d8a6156	0.067568466
114	0x3e7becc7	0.24602042
115	0xbe1dfdd9	-0.15428866
116	0xbe8b9bed	-0.272674
117	0xbe50ba50	-0.20383573
118	0xbd92eb91	-0.07173837
119	0x3dba7fb2	0.09106387
120	0x3e06d9b4	0.13168985
121	0xbd203938	-0.039117068
122	0xbd877ac9	-0.06615216
123	0x3eaad8e5	0.33368602
124	0xbd832848	-0.064041674
125	0xbd76a795	-0.060218412
126	0xbc086c3f	-0.008326589
127	0xbdf295bd	-0.118449666
128	0x3e5c3c9d	0.21507497
129	0x3e7aa58e	0.24477217
130	0xbe45e574	-0.1932581
131	0x3dcf5a15	0.10124604
132	0xbd118289	-0.03552488
133	0xbe92822c	-0.28614938
134	0xbe0059b4	-0.12534219
135	0xbdd9abab	-0.10628446
136	0x3e74560e	0.23860952
137	0x3e246af4	0.16056424
138	0x3e57f75e	0.21090457
139	0x3d8acf90	0.06777871
140	0x3dce044f	0.100594155
141	0x3da5190a	0.080614164
142	0x3d0240de	0.031800143
143	0x3da3f34f	0.08005392
144	0x3e4a63e0	0.19764662
145	0xbe20306e	-0.15643474
146	0xbe69eb77	-0.22843729
147	0x3d9bd3a6	0.07608728
148	0x3eea16cf	0.45720527
149	0x3eb96787	0.36211798
150	0x3c80f928	0.015743807
151	0x3d5e1481	0.054218773
152	0x3dc0b149	0.094088145
153	0x3d3938e6	0.04522028
154	0x3de946fc	0.11390492
155	0xbe354b6f	-0.17704557
156	0x3e4bb4b9	0.19893159
157	0xbcfe512f	-0.03104457
158	0x3eb77d9a	0.35838014
159	0x3e8f07ba	0.27935582
160	0x3e0996de	0.13436458
161	0x3edd0c7f	0.43173596
162	0xbe180b5b	-0.14848082
163	0x3e64bbb7	0.22337233
164	0x3e442415	0.19154389
165	0xbe809c15	-0.2511908
166	0x3d8c55c0	0.06852293
167	0xbe04178f	-0.12899612
168	0x3e845c2d	0.25851575
169	0x3e43f7f1	0.19137551
170	0xbd67c5a1	-0.056584958
171	0xbdcbc387	-0.09949403
172	0x3e240f98	0.16021574
173	0x3c0a2cef	0.008433565
174	0x3e85a034	0.26098788
175	0x3db9d49b	0.090737544
176	0x3d00fb96	0.03148993
177	0xbd4a74c1	-0.04942775
178	0xbe62500f	-0.22100852
179	0x3de1c400	0.11023712
180	0x3e1b43a6	0.15162525
181	0x3e050480	0.12989998
182	0xbd823945	-0.063585795
183	0xbdab8018	-0.08374041
184	0x3de2c3a6	0.11072473
185	0xbe1264e5	-0.142963
186	0x3e30477d	0.1721477
187	0xbe30c84c	-0.17263907
188	0x3def16bc	0.11674258
189	0x3d90dca5	0.070733346
190	0x3e79f70b	0.24410646
191	0xbbaa45e1	-0.0051963185
192	0x3e8b69dc	0.27229202
193	0x3ebe4bf3	0.3716732
194	0xbe5150be	-0.20440957
195	0xbd96b3d8	-0.07358521
196	0x3e737a91	0.23777224
197	0xbdfb46c9	-0.122693606
198	0x3d0420d9	0.03225789
199	0x3e22d53f	0.1590166
200	0x3e05e89f	0.13077019
201	0xbd21f34f	-0.039538678
202	0xbde5a1d9	-0.112125106
203	0x3d3a2cca	0.04545287
204	0x3ec789ff	0.3897247
205	0x3e3466d1	0.17617346
206	0x3e249da1	0.16075756
207	0x3d99128c	0.07474241
208	0x3e414f63	0.1887794
209	0xbda79c0b	-0.0818406
210	0xbe44c549	-0.19215883
211	0xbda86700	-0.08222771
212	0x3e5bfeb9	0.21483888
213	0x3e9948be	0.2993831
214	0x3d890d88	0.06692034
215	0xbc479830	-0.01218228
216	0xbd82b19d	-0.06381533
217	0xbe8c1944	-0.27363026
218	0x3ebc1e17	0.36741707
219	0xbea0875e	-0.31353277
220	0x3e415112	0.18878582
221	0x3e04d056	0.12970099
222	0x3ebf71a2	0.37391382
223	0x3df7e18d	0.12103567
224	0x3e58b186	0.2116147
225	0x3e29ec32	0.16594008
226	0xbe9d0063	-0.30664358
227	0x3da9ab9b	0.08284684
228	0xbdbb2d63	-0.09139516
229	0xbea93ff1	-0.33056596
230	0xbe8a1f20	-0.26976871
231	0x3dc3333d	0.09531257
232	0xbe0df4ae	-0.13862869
233	0x3de0e9f1	0.10982121
234	0xbe2c1a99	-0.16807021
235	0xbd755bea	-0.05990211
236	0xbce0bec2	-0.02743471
237	0xbdc1616f	-0.09442412
238	0x3e1d016f	0.15332578
239	0xbe034f51	-0.12823226
240	0xbe11e50f	-0.14247535
241	0x3d189cd7	0.03725895
242	0xbdbce772	-0.09223832
243	0x3e0fc6cc	0.14040679
244	0x3ec62358	0.3869884
245	0x3e43d348	0.19123566
246	0x3da330bb	0.07968279
247	0x3e501132	0.2031906
248	0xbdad81de	-0.08472036
249	0xbd0bd299	-0.03413639
250	0x3da305b6	0.07960074
251	0xbd8a1c65	-0.06743697
252	0x3e251987	0.16123019
253	0x3e23602d	0.15954657
254	0x3e2cc57b	0.16872208
255	0x3de8f5e1	0.11375023

fc2.bias f4 [32]
0	0xbe90911e	-0.28235716
1	0xbe7b1972	-0.24521425
2	0x3e0451cc	0.12921828
3	0x3d5617a8	0.052268654
4	0xbe5a49fb	-0.21317284
5	0xbeaa2cb0	-0.3323722
6	0x3d1264c8	0.035740644
7	0xbc8f3747	-0.017482413
8	0xbea4a169	-0.32154396
9	0xbe49d7b6	-0.19711193
10	0xbdabe153	-0.083925866
11	0xbd5fe821	-0.054664735
12	0xbd42066d	-0.04736941
13	0xbdebd8b1	-0.1151594
14	0xbe688f12	-0.22710827
15	0xbdacb3aa	-0.08432706
16	0x3e519f6c	0.20470971
17	0x3e41038c	0.1884901
18	0xbda76910	-0.08174336
19	0xbe863b66	-0.26217192
20	0x3e47664a	0.19472614
21	0x3d83f398	0.06442946
22	0x3e26883a	0.16262904
23	0xbd6fb215	-0.05851944
24	0x3e925154	0.28577673
25	0x3c80a2bf	0.015702603
26	0x3e10f6ad	0.141566
27	0xbe920e05	-0.2852632
28	0xbd8ac1db	-0.06775256
29	0x3e60d619	0.21956672
30	0xbd86756b	-0.065653645
31	0xbe8fd022	-0.2808848

fc3.weight f4 [2, 32]
0	0xbe43cbbe	-0.1912069
1	0xbe8e4ed7	-0.27794525
2	0x3e06a8fa	0.13150397
3	0x3dc80e9e	0.09768413
4	0xbe846cab	-0.25864157
5	0xbec61959	-0.38691214
6	0xbe2b5b3b	-0.1673402
7	0x3e07c451	0.13258483
8	0xbe783409	-0.242386
9	0xbeb8a882	-0.3606606
10	0xbe85054c	-0.25980604
11	0xbea243de	-0.31692404
12	0xbd34edc7	-0.044172075
13	0xbe013089	-0.12616171
14	0xbe952d94	-0.29136336
15	0xbe4f6765	-0.20254286
16	0x3e72a13f	0.23694323
17	0x3ea18dd7	0.31553528
18	0xbd2ea290	-0.0426355
19	0xbeb5549e	-0.3541612
20	0x3e8492dd	0.25893298
21	0x3e85cda8	0.26133466
22	0x3e73eb17	0.23820148
23	0xbe9e47e0	-0.3091421
24	0x3e9b6f55	0.30358377
25	0x3c721311	0.014775054
26	0x3e6af6c7	0.229457
27	0xbe8d1873	-0.27557716
28	0xbe21ba43	-0.1579371
29	0x3eaf2b60	0.3421278
30	0xbe80949a	-0.25113374
31	0xbebc0c9b	-0.36728367
32	0xbe88ea49	-0.26741245
33	0xbe8b7b1a	-0.27242357
34	0x3e15ef04	0.14641958
35	0x3e8518cb	0.25995478
36	0xbe8200b3	-0.25391158
37	0xbe44cc7e	-0.19218633
38	0xbe82ed7d	-0.25571814
39	0xbdbe89b5	-0.09303609
40	0xbe8e1474	-0.2774998
41	0xbeb455e4	-0.3522178
42	0xbdb71d8d	-0.08941183
43	0xbe3ddbf9	-0.18540944
44	0xbe6de6bd	-0.23232551
45	0xbe548193	-0.20752554
46	0xbe96730f	-0.29384658
47	0xbea20b33	-0.3164917
48	0x3e25c817	0.1618961
49	0x3cd42517	0.025896592
50	0xbea0d067	-0.31408998
51	0xbe94cd6f	-0.29062983
52	0x3e92b0f7	0.28650638
53	0x3e845332	0.25844723
54	0x3eab3ffd	0.33447257
55	0xbe1605e9	-0.14650692
56	0x3e6616ff	0.2246971
57	0x3e3fd0f2	0.1873205
58	0x3e45401d	0.19262739
59	0xbe84c5af	-0.2593207
60	0xbe02675b	-0.1273474
61	0x3e87d6b6	0.26531
62	0xbe761348	-0.24030793
63	0xbe45e40e	-0.19325277

fc3.bias f4 [2]
0	0x3e332d3d	0.17497726
1	0x3e82f86b	0.25580153
