experiments/cartpole/models/per_dqn_cartpole.pt (torch, 8193 bytes, 6 tensors)

fc1.weight f4 [32, 4]
0	0xbf31df82	-0.6948167
1	0x3f5805c8	0.8438382
2	0xbefdde23	-0.4958354
3	0x3f561d31	0.8363829
4	0xbf0aebc3	-0.54265994
5	0x3c9c6ed8	0.019095823
6	0x4085e01a	4.183606
7	0xbfe32d71	-1.7748243
8	0xbcc5b0cc	-0.024132155
9	0x3b9e6a5a	0.0048344554
10	0x40822069	4.0664563
11	0x3e2fb037	0.17157064
12	0xbf4f049f	-0.80866426
13	0x3e5fb9a6	0.21848163
14	0xbfb66e42	-1.4252398
15	0x3f04da7a	0.5189587
16	0xbe5a1c61	-0.21299888
17	0xbe1d630f	-0.15369819
18	0xc0d2f725	-6.592669
19	0xbf9c22b3	-1.2198089
20	0xbf561176	-0.83620393
21	0x3e38e9fd	0.1805801
22	0xbf9bcb61	-1.2171441
23	0xbf0df3a1	-0.55449873
24	0x3d50625a	0.050875045
25	0xbe57049e	-0.20997855
26	0x40bc3a77	5.882137
27	0x3fbff924	1.4997907
28	0x3e729d94	0.23692924
29	0x3f17750c	0.59162974
30	0x40a8a481	5.270081
31	0xbfa188c3	-1.2619861
32	0xbd9d66c4	-0.076856166
33	0xbc3a27c9	-0.011362025
34	0xc0cf3bf5	-6.476069
35	0x40138cfb	2.3054798
36	0xbf21d6df	-0.6321849
37	0xbe0313ad	-0.12800474
38	0x404d6d40	3.209793
39	0x3f314908	0.6925206
40	0xbcb497f1	-0.022045108
41	0xbc75e2a7	-0.015007651
42	0xc05a3a9c	-3.4098272
43	0xbe9785e4	-0.29594338
44	0x3dca42a4	0.09875992
45	0xbdf82878	-0.12117094
46	0xc0a8fa63	-5.280565
47	0xbf870ec3	-1.055138
48	0xbdbd5798	-0.09245223
49	0x3dce90be	0.10086201
50	0xc05d7903	-3.460511
51	0x3f020089	0.50782067
52	0xbbb00df1	-0.0053727557
53	0x3ef8d1f6	0.48597687
54	0xc074c563	-3.8245475
55	0xbf2e5570	-0.6809912
56	0xbde47147	-0.111544184
57	0xbdd31a13	-0.10307708
58	0xc0a568a7	-5.169025
59	0x4027a317	2.6193292
60	0x3e0f00cb	0.13965146
61	0xbc8eb752	-0.017421398
62	0x404c3dfb	3.191283
63	0x3f19aaef	0.6002645
64	0x3f5de2d9	0.8667427
65	0xbec4e3fe	-0.38455194
66	0xbf6d3e03	-0.9267275
67	0x3fa663c2	1.2999194
68	0x3d0fdd59	0.035123203
69	0xbdaa986e	-0.08329855
70	0x40d27c3f	6.5776668
71	0x3fb1bb66	1.3885314
72	0x3f2304c2	0.63679135
73	0xbe52582b	-0.20541446
74	0xc058be82	-3.3866277
75	0xbee7ed5f	-0.45298287
76	0xbed7fd1f	-0.42185304
77	0xbf0311fc	-0.51199317
78	0x407b4e2c	3.9266462
79	0x3f42c2af	0.76078314
80	0xbe384f1d	-0.1799893
81	0x3c6f455a	0.014603937
82	0xc090ccfd	-4.525023
83	0xbea78fdf	-0.32726952
84	0xbda7b25f	-0.081883185
85	0x3f062853	0.5240528
86	0x3fb4daa1	1.412922
87	0x3eebca59	0.46052817
88	0x3d1ea64b	0.038732808
89	0x3d2c11b9	0.04200909
90	0x40cb50ea	6.353627
91	0x3fc4da42	1.5379107
92	0x3eda492e	0.42633957
93	0x3f032596	0.51229227
94	0xc0accb8a	-5.399846
95	0xbf4d6dbe	-0.8024558
96	0xbf1064ac	-0.56403613
97	0x3dae47c4	0.08509782
98	0xbfbe3a26	-1.4861495
99	0x3f5f713d	0.8728216
100	0xbfc22a42	-1.5169146
101	0xbed30378	-0.41213584
102	0x3ffa3a28	1.9548998
103	0x3e9d23c6	0.30691355
104	0xbd867deb	-0.06566986
105	0x3cc19cb0	0.023634285
106	0xc0bebf4e	-5.9608526
107	0xbf95547e	-1.166641
108	0xbd899b2e	-0.06719051
109	0x3ed63bb9	0.4184244
110	0x405849b9	3.3794997
111	0x3f8300ef	1.023466
112	0x3d96b787	0.07359224
113	0xbd825a0e	-0.06364833
114	0x40ae5020	5.447281
115	0x3fd9078c	1.6955428
116	0x3e1ca051	0.15295531
117	0x3bce6b64	0.006299423
118	0x40a0ca53	5.024698
119	0x3f92ae3d	1.1459423
120	0x3e66c82d	0.22537299
121	0x3f606c10	0.8766489
122	0x40e196a7	7.04964
123	0x3fc99bdc	1.575069
124	0xbcd607f6	-0.026126843
125	0x3c217939	0.009855562
126	0x405619a5	3.3453152
127	0x3e63d65e	0.22249743

fc1.bias f4 [32]
0	0xbddfb3ee	-0.10922991
1	0xbeb1098a	-0.3457759
2	0xbf6821be	-0.90676486
3	0x3f8304df	1.0235862
4	0x3fbf2640	1.4933548
5	0x3f8a5edc	1.0810199
6	0x3fd09156	1.6294353
7	0xbe9bdc0f	-0.3044133
8	0xbf22056f	-0.6328954
9	0xbf48c50c	-0.7842567
10	0xbf5827d4	-0.8443577
11	0x3f886da7	1.0658463
12	0x3e9edafb	0.31026444
13	0x3f8699ef	1.0515727
14	0xbf3f2118	-0.7465987
15	0xbf2b6bbf	-0.6696128
16	0x4003ce99	2.0594847
17	0x3fa901ab	1.3203634
18	0xbf758009	-0.9589849
19	0x3f3ad3f4	0.72979665
20	0xbf8aef03	-1.085419
21	0x3f2b7599	0.66976315
22	0x3fd584d0	1.6681156
23	0xbf4cdf87	-0.80028576
24	0x3f84bad0	1.0369511
25	0xbfd75350	-1.68223
26	0x3fd48eb3	1.6606048
27	0x3f8c3ec5	1.0956656
28	0x3f8c37ec	1.0954566
29	0x3f6ad1a2	0.91726124
30	0xbfb1a8a5	-1.3879591
31	0xbf48e36e	-0.7847203

fc2.weight f4 [32, 32]
0	0x3f477716	0.77916086
1	0xbe8fd942	-0.28095442
2	0x3f24e42c	0.6441066
3	0xbf208b53	-0.6271259
4	0x3f6ff67e	0.9373549
5	0xbe7bf8fb	-0.24606697
6	0xbeac4687	-0.33647558
7	0x3e0318a0	0.12802362
8	0x3eb53755	0.35393777
9	0x3d4c8e45	0.049940366
10	0x3faa4e7b	1.33052
11	0x3f1b6637	0.6070284
12	0x3f5dd1c9	0.8664823
13	0x3f2c6bfa	0.6735226
14	0xbe4f7319	-0.2025875
15	0x3f12a1dd	0.57278234
16	0xbf0d08b2	-0.55091393
17	0x3f447dee	0.76754653
18	0x3f99b8da	1.2009537
19	0xbf0812c5	-0.5315364
20	0x3feec3bd	1.8653485
21	0xbe6a4dc4	-0.22881228
22	0x3edad2e2	0.42739016
23	0x3f91d0a5	1.1391798
24	0xbf1a306c	-0.60230136
25	0xbef71286	-0.4825632
26	0x3f5e25dc	0.8677652
27	0xbcce5d90	-0.025191098
28	0x3e2ce376	0.16883644
29	0xbcd8424d	-0.026398802
30	0x3e88e668	0.26738286
31	0x3e972b52	0.29525238
32	0xbfbfe377	-1.4991292
33	0x40176535	2.3655522
34	0x4103a5f6	8.228018
35	0xbf311e37	-0.6918673
36	0xc0aa5365	-5.32268
37	0xbfa52406	-1.2901618
38	0x3e176a9c	0.14786762
39	0x401398a7	2.3061922
40	0x3f371519	0.7151657
41	0x40645bfc	3.5681143
42	0xbcea3598	-0.028590009
43	0xc08ff849	-4.4990582
44	0xc05cac50	-3.4480171
45	0xc0241535	-2.5637944
46	0x3ebf6bf8	0.3738706
47	0x40fb892d	7.860495
48	0xbeb98d53	-0.36240634
49	0x3ea9fb88	0.33199716
50	0x3c113d01	0.008864642
51	0x3f7cc0a1	0.9873143
52	0xbdacef50	-0.08444083
53	0xbd955785	-0.07292084
54	0x3f2fc2f6	0.6865686
55	0xc02059c6	-2.5054793
56	0xbfb2d9f4	-1.3972764
57	0x3fa4f873	1.2888321
58	0xc093d746	-4.6200285
59	0x3e63503d	0.22198577
60	0x3f415558	0.7552085
61	0x3f51c274	0.81937337
62	0x3fa40d91	1.281664
63	0x4114fc4b	9.311595
64	0xbf89aa3a	-1.0755074
65	0x3f187a2e	0.5956143
66	0x3f712152	0.9419147
67	0xbf1539e2	-0.5829145
68	0x3f874b1c	1.0569797
69	0xbc386775	-0.011255135
70	0x3db7a104	0.08966258
71	0x3de80166	0.11328392
72	0x3f80709f	1.0034369
73	0x3d81d2da	0.06339045
74	0x3fa0dbe3	1.2567104
75	0x3f268eeb	0.65061826
76	0xbe92116b	-0.28528914
77	0x3f3d223c	0.7388036
78	0x3eb8b4c3	0.3607541
79	0x3ed4da63	0.41572866
80	0xbed42afb	-0.41439041
81	0x3f5465f9	0.829681
82	0x3f890001	1.0703126
83	0xbe1cf4af	-0.15327714
84	0x3fde8bbc	1.7386394
85	0xbe64c072	-0.22339037
86	0x3f0b5d6f	0.54439443
87	0x3f12bfbd	0.5732382
88	0xbf449751	-0.7679339
89	0xbf0773b0	-0.529109
90	0x3f7a68a0	0.97815895
91	0xbf28304b	-0.6569869
92	0x3c8eb28e	0.017419126
93	0x3e9dd439	0.30825976
94	0xbf0f40d4	-0.55958295
95	0x3efd3f4c	0.49462354
96	0xbf58c5f4	-0.8467705
97	0x3f31785a	0.69324267
98	0xbe1cd8d8	-0.15317094
99	0xbe5cd089	-0.21563925
100	0xbebd802f	-0.3701186
101	0xbe9bb60e	-0.30412334
102	0x3e89701a	0.2684334
103	0x3f5db988	0.86611223
104	0xbf2b0e7e	-0.6681899
105	0xbf111c8a	-0.5668417
106	0xc0149153	-2.32137
107	0x3d2c4035	0.04205342
108	0xbf6f0e03	-0.93380755
109	0xbe412910	-0.1886332
110	0xbf9f8f9c	-1.2465701
111	0x3c7c73b3	0.015408444
112	0x3f3c307b	0.73511475
113	0x3ea86922	0.3289271
114	0xc022fd7c	-2.5467215
115	0x3fde6b6c	1.7376533
116	0xbfd4ab0d	-1.66147
117	0x3f50e2e3	0.815962
118	0x3faed32c	1.3658195
119	0xbf8b610a	-1.0888989
120	0xbe069e2e	-0.13146278
121	0xbfaf124c	-1.3677459
122	0xbea6d2e8	-0.32582784
123	0x3fc5c354	1.5450234
124	0xbd8b83a4	-0.06812218
125	0x3fa123cd	1.258905
126	0xbf445dbe	-0.7670554
127	0xbcc1d8f2	-0.023663018
128	0x3fbfffa3	1.4999889
129	0xbf52f36f	-0.824027
130	0xbd8f3423	-0.06992366
131	0x3fac9351	1.3482457
132	0x3ed7b62a	0.42131168
133	0xbf2c9d7a	-0.6742779
134	0xbfbc882e	-1.4729059
135	0xbf970a47	-1.1800011
136	0x3f97cc55	1.1859232
137	0xbe4c1882	-0.19931224
138	0x410750b4	8.457203
139	0x3e8c4f29	0.27404144
140	0x405d94df	3.4622114
141	0xbd89db04	-0.06731227
142	0x40040f64	2.0634394
143	0xbe398831	-0.18118359
144	0xbf3dbb5e	-0.74114025
145	0xc00a202d	-2.1582139
146	0x40f30453	7.594278
147	0xbf6384bb	-0.88874406
148	0x41349873	11.287219
149	0xbf8253d8	-1.0181837
150	0xbfe50b82	-1.7894137
151	0x3fb0bee6	1.3808258
152	0x3f2bd1c7	0.6711697
153	0x3dc3aa25	0.09553937
154	0x3f209e9b	0.6274201
155	0xbf6fd8a7	-0.9368996
156	0xc01221be	-2.2833095
157	0xc02010cc	-2.5010252
158	0x3f500f6d	0.8127354
159	0xbe0a2a0a	-0.13492599
160	0xbf4d0785	-0.800896
161	0x3f3af410	0.7302866
162	0xbda65598	-0.081217945
163	0xbe16276a	-0.14663473
164	0xbe90ada3	-0.28257474
165	0xbeb68e42	-0.3565541
166	0x3e9cc46b	0.30618605
167	0x3f5a0858	0.8516898
168	0xbf7ac8a9	-0.97962433
169	0xbf2733e7	-0.6531357
170	0xc01bf56e	-2.4368548
171	0xbe0d339c	-0.13789219
172	0xbf83d8e1	-1.0300561
173	0xbe9d548d	-0.3072857
174	0xbf96c195	-1.1777827
175	0x3dc63f68	0.096800625
176	0x3f551783	0.83239
177	0x3ec5d8b1	0.38641885
178	0xc021e0c0	-2.5293427
179	0x3feaf47f	1.8355864
180	0xbfddc77d	-1.7326504
181	0x3f23e563	0.6402189
182	0x3f996d44	1.198647
183	0xbf78283a	-0.9693638
184	0xbcb58b99	-0.022161292
185	0xbf9d5a76	-1.2293231
186	0xbe851605	-0.25993362
187	0x3fd1eef3	1.6401047
188	0xbdb39c88	-0.0877009
189	0x3fa56f73	1.2924637
190	0xbf58665d	-0.84531194
191	0xbe41a3ee	-0.1891019
192	0x3f309708	0.68980455
193	0xbf2c6e7f	-0.67356104
194	0xbf244a27	-0.6417565
195	0x3f3743d0	0.7158785
196	0x3e913400	0.28359985
197	0x3d3bb0c2	0.045822866
198	0xc0353ee7	-2.8319643
199	0xbf1b846f	-0.6074895
200	0x40808d8d	4.017279
201	0xbed854b2	-0.42252117
202	0x40e4e166	7.1525145
203	0x3bd216fc	0.0064114314
204	0xbe6b4745	-0.22976406
205	0xbe627da7	-0.22118245
206	0x405cb31d	3.4484322
207	0xbf3fc635	-0.74911815
208	0x3eef9cc7	0.467993
209	0xc0a47624	-5.1394215
210	0x40bc9893	5.893625
211	0xc026617f	-2.5997007
212	0x40dfcbf5	6.993647
213	0x3dc52840	0.09626818
214	0xc09678af	-4.702232
215	0x3f377a68	0.7167115
216	0x3d92a74a	0.07160814
217	0xbf1e5557	-0.6184897
218	0x3e7885cc	0.2426979
219	0xbfaecbc1	-1.3655931
220	0xc08b329a	-4.349927
221	0xc086f415	-4.217295
222	0x3fb0bb29	1.3807117
223	0xbf08e562	-0.5347501
224	0x3f926bbf	1.1439131
225	0xbf918625	-1.1369063
226	0xbe2b247f	-0.16713141
227	0x3f54d246	0.8313335
228	0xbf359dbc	-0.7094381
229	0xbf0eda8a	-0.55802214
230	0xc08130c3	-4.0372024
231	0xbd2f94c3	-0.04286648
232	0x406cd624	3.70057
233	0xbd0592c3	-0.032610666
234	0x4035cd70	2.840664
235	0xbf406b78	-0.75163984
236	0xbee6755e	-0.4501142
237	0xbf7b2859	-0.9810844
238	0x4065c6ab	3.5902507
239	0xbee4aea7	-0.446645
240	0x3f82becd	1.0214478
241	0xc07176f3	-3.772885
242	0x4013b780	2.308075
243	0xc00ebe75	-2.2303746
244	0x3f000f10	0.50022984
245	0xbdfc9822	-0.123337045
246	0xc09f0c5a	-4.9702578
247	0xbfd10b36	-1.6331546
248	0x3fda1fda	1.704097
249	0x3d113475	0.035450418
250	0xbf09d87e	-0.53845966
251	0xbe61e747	-0.22060882
252	0xc02ea9a7	-2.7291048
253	0xc0400bd0	-3.000721
254	0x3ed3d6b5	0.41374746
255	0xbe897567	-0.26847383

fc2.bias f4 [32]
0	0xbf28021f	-0.65628237
1	0xbf3ae265	-0.730017
2	0xbf0b9d23	-0.54536647
3	0x3edfae41	0.43687633
4	0xbf4c2401	-0.7974244
5	0x3eb20c16	0.34774846
6	0x3db769eb	0.08955749
7	0x3e3ccc15	0.18437226
8	0xbef3b6c3	-0.47600374
9	0xbe98614b	-0.2976173
10	0xbf188a66	-0.5958618
11	0xbf0bf714	-0.54673886
12	0xbf1fd5ba	-0.62435496
13	0x3f02ac3d	0.51044065
14	0xbd867caf	-0.0656675
15	0xbe99ea7a	-0.30061704
16	0x3fced73a	1.6159432
17	0x3e957669	0.29191902
18	0x3f6e2026	0.93017805
19	0x3e35f1d3	0.1776803
20	0x3eb0e463	0.34549245
21	0x3e2a59fd	0.1663589
22	0xbfe8b98b	-1.8181623
23	0xbe011e4e	-0.12609217
24	0x3e403f2e	0.18774101
25	0x3efa0db8	0.48838592
26	0xbf22cd46	-0.6359447
27	0x3e6e5878	0.23275936
28	0x3d8d529a	0.069005206
29	0x3e5897a2	0.21151593
30	0x3d4d3814	0.05010231
31	0xbed8218f	-0.42213103

fc3.weight f4 [2, 32]
0	0x3fcf711d	1.6206394
1	0xc0b3034d	-5.594153
2	0x3fe96290	1.8233204
3	0x40129799	2.2905028
4	0x4023aaa7	2.5572908
5	0x401d8f5e	2.4618754
6	0xbf2f6f05	-0.6852878
7	0xc15af886	-13.685675
8	0x3fd5c4fb	1.6700739
9	0x3f50231c	0.8130357
10	0x40157ab2	2.3356137
11	0x406f2a0e	3.7369418
12	0x3f8c0222	1.0938151
13	0x400dc8e1	2.2153857
14	0x400510bc	2.0791464
15	0x40085a27	2.1305025
16	0xbf9a8cdd	-1.2074238
17	0x4006ba66	2.1051269
18	0xc02317a8	-2.5483189
19	0xbfbf77cc	-1.4958434
20	0x3f2a2c18	0.6647353
21	0x4082db41	4.0892644
22	0x3fb379d6	1.4021556
23	0xc0af67f2	-5.4814386
24	0xbeb24884	-0.3482095
25	0x3f31ebe5	0.6950057
26	0xc0b13551	-5.5377584
27	0x40511029	3.2666113
28	0xc01293b9	-2.2902663
29	0xc168ef34	-14.558399
30	0xc0bc8a1f	-5.8918605
31	0x4102ee48	8.183174
32	0x3fb3653b	1.4015268
33	0xbe0b07de	-0.1357722
34	0x3f33465f	0.7002925
35	0x3eb25a8b	0.34834704
36	0xc074f112	-3.8272138
37	0x3df1a6b6	0.11799376
38	0xc0e7f254	-7.248331
39	0x40ab8882	5.3604136
40	0xbef720a3	-0.48267087
41	0x3f7639ba	0.96181834
42	0xc15d122c	-13.8169365
43	0x400a1119	2.1572936
44	0x3fc4f85d	1.5388294
45	0x3e450fb0	0.19244266
46	0xc105ad9d	-8.354886
47	0x3feea909	1.8645335
48	0xbfa2aac7	-1.2708367
49	0x3f40c439	0.7529941
50	0xc0341ba6	-2.8141875
51	0x3fde0809	1.7346202
52	0x3fc76474	1.5577531
53	0xc0e1cec4	-7.05649
54	0x4128e8cf	10.556838
55	0x4132e566	11.1810055
56	0xc08090de	-4.017684
57	0x3fdd78b1	1.7302457
58	0x3f69d8f3	0.91346663
59	0xc0e6b6ac	-7.209799
60	0x3ee41cf1	0.4455333
61	0xbf0873d9	-0.5330177
62	0x3e37c5d2	0.17946556
63	0xbff68379	-1.9258872

fc3.bias f4 [2]
0	0xbf8d5274	-1.1040788
1	0xbfadffdf	-1.3593711
