models/dqn_cartpole.pt (torch, 72657 bytes, 6 tensors)

fc1.weight f4 [128, 4]
00000000: 2e3a 1b3e 15e3 a73e 0efe 82be 6840 fa3e
00000010: 31b4 e9bc d9b8 6b3e aafb d63c 80f1 64bd
00000020: f394 d23e 8394 af3e aebf 4e3e 727f 3a3e
00000030: 939f 04bf 8a7a d9bd 1654 393f 3706 cc3e
00000040: 37a4 2d3e a7b6 193d bbc7 153f a57c 873e
00000050: 54c9 b13e e4e3 95be ba0c 963e a1ff c33e
00000060: fe15 bdbe 8351 053d b3a1 01bf f40e 433e
00000070: 0440 e7be 061d f0be c4c6 0c3f 4c26 913e
00000080: 4302 0cbd ba42 883e b5df 113f 2909 b83e
00000090: d418 e33e c7a9 13be b70b 6abe 2642 30be
000000a0: 4dc1 8d3e a955 73bd e853 0fbf c4ac da3e
000000b0: aaeb a73e 569f ee3d b6bd d43e f526 0c3e
000000c0: 1a79 903d fc30 21be e2e1 343e 790d e8be
000000d0: 0981 cc3e 53df bcbe c851 f5be 922b debe
000000e0: 4d86 843e e66d cabe d08c ee3e 6960 903e
000000f0: 87e9 d6be 23b6 c8be 4f59 b53d a40d 5b3d
00000100: 3ccb f9be 7d6b 383e 5540 aebe df22 403e
00000110: 340a fe3d 3692 65bd 0491 153f b16d a5be
00000120: 0498 253e ec93 df3e c5b0 c43e 1aef 823c
00000130: b3b2 7a3e a167 ae3d d640 fcbc 959c 2abe
00000140: b889 953e 408f c4be 09fd 35bd bb76 903e
00000150: cf2e d8bd 5b07 b4be ec77 3dbe 5a88 cbbe
00000160: ed97 de3e 43ac d2be a9cc 85bd 2390 bcbe
00000170: 4a0a 8e3e d0e5 babd ac90 07bf 2582 e33e
00000180: 54e1 b0be a5b5 10be 72c4 aa3e a119 46be
00000190: 245a 483e f74a 1abe 33bd 97bc f8d5 fdbe
000001a0: ccfc a8bd b609 f1be 7136 943e e5be 273e
000001b0: 17fd cf3e 643b 2dbd edf5 05bf 2331 e03e
000001c0: 1340 0e3e f7b0 eb3e 5cc0 cbbe 991e f43d
000001d0: 2026 64be d71b 54be fcfa c5be 9a5f babd
000001e0: 2ffe aa3e efd7 c5be 7de1 d9be 24d0 43bd
000001f0: f3ad bdbe 8843 c5be af22 aebe c627 b83e
00000200: 33d6 873e 5ed4 ddbe 53d4 18bf 08e8 153d
00000210: 2514 fcbd c0f1 c5be 2afa f3be d40a 3ebd
00000220: c055 143d 81e7 d5be 6fc4 08bf b5da ebbe
00000230: 9606 f3be 8b25 d23c 6993 01be 4190 ab3c
00000240: 6d2d 583e 5d4b c43e 6b29 d33e 7f16 33be
00000250: 009e 8c3d ca31 efbd 1ace 1bbf 8ea4 d8bd
00000260: 19e4 c8be fd38 513e f733 743d 8f3b 95bc
00000270: 17e9 69bd 332e 32be 66d5 64be b5aa 58be
00000280: bc04 95be d0e5 bb3e f86b e5bc ede1 85be
00000290: c2d1 a53d d393 923e 539a 86be 2630 c23d
000002a0: 7483 1f3e 3abc 04be 766f b6bd 461e a3be
000002b0: 6723 953d a182 363e b926 9cbe 8d6b 96be
000002c0: d1b2 b53d 8263 bbbd 8b16 263f 1c03 a23e
000002d0: 61ab d73e e08a b1be 62e1 9f3e 5ffe 41bc
000002e0: 5554 83be 18fe 33be 07fb a03e b976 cdbe
000002f0: 7a4b b83e cef7 b2be 6e35 28be e08e 71bd
00000300: 3e90 883e e23b 6e3c f108 1dbd 6b88 febe
00000310: 8117 663d 6b80 43be 8d85 e0bc 42b8 a03c
00000320: c6b4 403e d700 993e 7bfb 1bbe dbc7 893e
00000330: a89e f0be 4761 e83e b24e 9cbe d774 dd3e
00000340: c811 94be 8446 b73e 3f05 edbe 9864 8bbe
00000350: fc69 d53e ec68 253e 8b97 c93e 1506 09bd
00000360: 0835 dc3e 0f6a fdbe 4ff8 283f 2415 cfbd
00000370: 539f be3e 3dc3 023e 4d60 0e3f de41 37be
00000380: 4ba6 d7be 147c c93d 768e ab3d 6506 97be
00000390: 87f5 dfbe c287 5ebe 284d c53d 1d47 ce3c
000003a0: 4607 a43e 32f0 203d af9b acbe 35df c83d
000003b0: 9b11 83be a7b3 84be 63f9 0ebe 6e12 e2bd
000003c0: 311b f53e 6aaf c4be 74c8 fcbe 99ee e9be
000003d0: c67f 583e 6a0f e6be d6ad acbe 4138 9b3e
000003e0: 5e1f f03e 6d54 dcbe baed 603e 0cbd b8bd
000003f0: 471e c13e 09e0 37bd e9e7 64bd 9fdd e7be
0.15158913 0.32790437 -0.25584453 0.48877263 -0.028528305 0.23019733 0.02624305 -0.055894375
0.41129264 0.34292993 0.20190307 0.18212679 -0.5180599 -0.106190756 0.7239393 0.39848492
0.16957174 0.037527706 0.5850789 0.26462284 0.34723914 -0.2927543 0.29306585 0.38280967
-0.3693084 0.03254844 -0.5063736 0.19048673 -0.45166028 -0.46897143 0.5499079 0.2834953
-0.034181844 0.26613408 0.56981975 0.3594449 0.4435488 -0.14420234 -0.22856031 -0.17212734
0.2768654 -0.059407864 -0.55987406 0.42709935 0.32796985 0.11651485 0.41550988 0.13686736
0.07054348 -0.15741342 0.17664292 -0.4532278 0.39942196 -0.36889133 -0.47913957 -0.43392617
0.25883713 -0.3953697 0.46591806 0.28198555 -0.41975042 -0.3920146 0.08854925 0.053479806
-0.48787868 0.18009754 -0.34033456 0.18763302 0.1240429 -0.05604764 0.584244 -0.3231025
0.1617127 0.43667543 0.38416114 0.015983153 0.24482231 0.085158594 -0.030792635 -0.16661294
0.29206634 -0.3839054 -0.044430766 0.28215584 -0.10555803 -0.35161862 -0.18502778 -0.39752465
0.43475285 -0.4114705 -0.065331765 -0.36828718 0.27742225 -0.091258645 -0.52955127 0.4443523
-0.34546912 -0.14131792 0.33353 -0.19345714 0.19565636 -0.1506766 -0.018522834 -0.49577308
-0.08251342 -0.4707772 0.28947785 0.16381414 0.4062278 -0.042292967 -0.5232838 0.43787488
0.1389163 0.4603345 -0.39795196 0.119198985 -0.22280169 -0.20713745 -0.38668048 -0.09100266
0.33397052 -0.38641307 -0.42554846 -0.04780592 -0.37046775 -0.38528085 -0.34010836 0.35967845
0.2653061 -0.43326086 -0.5969898 0.036598235 -0.1230853 -0.38661003 -0.47651798 -0.046397045
0.03621459 -0.41778186 -0.53424734 -0.46065298 -0.47465962 0.025652668 -0.12653889 0.020942809
0.21111079 0.38338748 0.41242537 -0.1748905 0.068660736 -0.116794184 -0.6086136 -0.10578261
-0.39236525 0.20431896 0.05961987 -0.018216876 -0.057107057 -0.17400436 -0.2234703 -0.2115887
-0.29105175 0.3669877 -0.028005585 -0.2614893 0.08096649 0.28628406 -0.26289615 0.0948184
0.15577489 -0.12962428 -0.08907978 -0.31859034 0.07282143 0.17823268 -0.30498293 -0.2937893
0.08871997 -0.09149839 0.6487815 0.31642997 0.4212294 -0.34676266 0.3122664 -0.011840432
-0.25650278 -0.17577398 0.3144152 -0.4012964 0.35995084 -0.34954685 -0.16426632 -0.058974147
0.26672548 0.014540644 -0.038338605 -0.49713454 0.05617476 -0.19091956 -0.027407432 0.019619111
0.1881896 0.29883453 -0.15232651 0.2691029 -0.46996045 0.45386717 -0.3052879 0.43253204
-0.28919816 0.35795987 -0.46293065 -0.27225184 0.41682422 0.16153306 0.3937343 -0.033453066
0.4300921 -0.4949498 0.6600389 -0.10111454 0.3723093 0.1276979 0.55615693 -0.1789622
-0.4211906 0.09838119 0.08376782 -0.29497066 -0.4374201 -0.21731475 0.09633857 0.025180394
0.320368 0.039291568 -0.33712527 0.09808198 -0.2559937 -0.25918314 -0.13962321 -0.110386714
0.47872308 -0.3841508 -0.49371684 -0.45689848 0.21142492 -0.44933635 -0.33726376 0.30316356
0.4689893 -0.43033162 0.21965685 -0.09020433 0.37718412 -0.04489139 -0.05588523 -0.4528627

fc1.bias f4 [128]
00000000: f047 d9be 170b e33e e484 a93e d59e c4be
00000010: de3a 9c3d 758a 5d3e 14cd e73e 9a7f 13be
00000020: 4042 63be 532f c7bd 70c5 4d3e 344e 073f
00000030: 1d52 01bf 6ffc 43be 53ac cfbe 2881 3dbe
00000040: 14ae f03d 4119 c53e f5aa 053f b05c abbd
00000050: 0187 653e fa9e 693e 3160 bfbe e82b bbbe
00000060: 967e 0d3e ad4f 73be 868c 383e acbb 93be
00000070: ca14 32bd 4541 79be feb3 14be d493 bbba
00000080: cc89 01be b308 ebbe bb7c e7be 20dd d43e
00000090: 653b af3d 13d8 753e 93b6 813d a9ad b13e
000000a0: 78f7 b63e e898 813e b233 2dbe 471b ea3e
000000b0: c34f a2be 59f3 01be d805 1bbe d258 08be
000000c0: fe6c ba3e dc93 d43e 1ad9 a83e 8ead ef3e
000000d0: 1d71 24bd 7aac 933e 01b3 bfbe 974d 3a3e
000000e0: 3303 c83e 3887 e9be 3fe9 7f3e 3b8c 693c
000000f0: a18a cbbe 66db 57be dafa 783e bc1d 913e
00000100: d90e 06be 2bd8 7e3d d0ea b53e f6db babe
00000110: ad17 4ebc 784d ddbd 1d42 03bf 5258 c2be
00000120: 22de d2be bb41 c5be f058 77be bb7a 47be
00000130: 9d7b 353d 10bb 5ebe 43bf ba3d ac37 7f3e
00000140: 91b6 cd3e 8202 d83d fe07 dabe 1d5f 82be
00000150: 20fa fdbe c7d8 f13d cf1f 1fbd 192e 8dbe
00000160: 92de 06be 0506 07be 9ec1 883e 779e ab3e
00000170: 3af9 dfbe 0adf e53e 770c c43e 985d 0a3f
00000180: 188f e43d dbf0 80bd 4cd4 b03e 0fac 8ebe
00000190: 40e8 f5be ca39 d4be cc86 d0bd baa6 ea3e
000001a0: 22a5 893e a7ba 963e d4d4 b93d 43c1 e6be
000001b0: d305 693e 5cca e83e 2b44 e53e dd95 e9be
000001c0: 30ce 06be 4354 d93d 2532 003e f803 dfbe
000001d0: c3c9 3e3e 6fdf f5be ba75 f73c 36e1 cebd
000001e0: ae45 793e b95f 81be 2c7d d3be b2cc d2bd
000001f0: 52c5 893e c244 b03e e76e 7bbd 5d2d 943d
-0.42437696 0.44344398 0.331092 -0.3840243 0.076284155 0.21634848 0.4527365 -0.14404145
-0.22193241 -0.09725823 0.20094848 0.52853703 -0.5051592 -0.19139265 -0.4056116 -0.185063
0.11751953 0.3849583 0.52213985 -0.08367288 0.22414781 0.22814551 -0.37378076 -0.36556935
0.1381782 -0.23760863 0.18022355 -0.2885412 -0.043476857 -0.24341305 -0.14521787 -0.0014311024
-0.12650222 -0.45905074 -0.4521235 0.41574955 0.085562505 0.24008207 0.063336514 0.34702805
0.3573568 0.2531197 -0.16914251 0.45723936 -0.31701478 -0.12690486 -0.15138948 -0.13315132
0.3641128 0.41519058 0.32978135 0.468121 -0.040146936 0.28842527 -0.37441257 0.1819366
0.3906494 -0.45610976 0.2499132 0.014254625 -0.39754203 -0.21079788 0.24314442 0.28342998
-0.13091601 0.062217873 0.3553071 -0.36495942 -0.012578887 -0.108057916 -0.51272756 -0.37958008
-0.411851 -0.3852671 -0.2415502 -0.19480412 0.04430734 -0.21751046 0.091185115 0.24923581
0.4017835 0.10547353 -0.42584223 -0.2546319 -0.49604893 0.11808925 -0.038848694 -0.27574232
-0.13170841 -0.1318589 0.26710218 0.33519337 -0.43744832 0.44896728 0.3829076 0.5404906
0.111601055 -0.062959395 0.3453697 -0.27865645 -0.48028755 -0.4145034 -0.101819605 0.45830327
0.268838 0.2943928 0.09073797 -0.45069322 0.22756128 0.45466888 0.4477857 -0.4562215
-0.13164592 0.10611775 0.12519129 -0.43557715 0.18631653 -0.4802203 0.030207504 -0.10101549
0.24342987 -0.25268343 -0.41306436 -0.10292949 0.26908356 0.34427458 -0.06138506 0.07235215

fc2.weight f4 [128, 128]
00000000: 635d 8bbb 18d7 d53d 568b b6bc 7eb2 4bbd
00000010: fd73 9bbd 8c9e c13d 5018 e8bb 2e89 1a3d
00000020: eb3f 2fbe 8c2d 1a3d 0685 bd3d a490 5dbd
00000030: 7f18 4839 7968 293b df54 82bc d431 97bd
00000040: d14f 953d 754f 843d 3e76 893d 6d0a 40bd
00000050: 468a 46bd 9cf9 8cbd 3dae 7a3d 9e54 353d
00000060: f19f 843c 1363 edbb be8b b43d 9890 a73c
00000070: 701b 37bd aebd 79bd df2c 0a3d 0fd9 9f3a
00000080: c677 313d 789a debd e4b4 7abe 2dc4 8b3c
00000090: 15ef 083d e71d f83c d059 fcbc 86a6 963d
000000a0: 2764 c93d 40b2 49bc 3344 d9bc bbb9 173b
000000b0: e12a b93c a661 2cbd bb10 723c 335f 3e3d
000000c0: 7c33 89bd 6a46 203d f2f7 563c 9a8e 34bd
000000d0: 63a4 36bd 63d9 debc a64c 03be 2a13 223d
000000e0: 7b2c 963c 8475 b43d e1f8 d1bc e6d4 de3b
000000f0: 3ac9 45be a893 873d a555 cf3c faef c5bc
00000100: c5b5 393d 5754 083e d29b de3c 971b 25bd
00000110: 2e54 0bbd 0ef0 09bd c4e1 58bc 36a0 82bd
00000120: 766f 7a3c dffc 3e3d 21ec 8ebc cc41 80be
00000130: 3a90 bfbd 8755 d03b acd0 cbbc dc60 633d
00000140: 287f d83d ab9d 993c 06ca 393c ab97 16bc
00000150: 6975 42bd d0b7 dd3b ae67 ea3c a80f ce3d
00000160: 643e 6cbd 8d03 adbc ff52 393d b472 6f3c
00000170: 1c5d 0f3d b6b8 513d 7f74 003d 7af7 983c
00000180: bdc8 3d3d 2ae0 70be f95e bd3d 1ec0 e0bd
00000190: 306f 5ebd eb51 41bd ed97 893d 0482 d43d
000001a0: 8219 263c 8a66 bc3c 44d3 0aba 1857 a5bc
000001b0: eb62 bd3c aa38 0abc 8add a0bc 968a 89bd
000001c0: 730a e4ba b9f1 dc3d 2ab8 c23d 456f 443c
000001d0: cd46 d73d 6c23 7a3d b6cd b7bd 1df6 92bb
000001e0: 6174 973c d1d1 a0bd 000d afbd ded8 a33c
000001f0: 5edf fabb b3e4 bb3d 7188 323d 297b ec3b
00000200: bd27 7c3b 7f4d 983d c5e4 b93d e6b3 273d
00000210: 90cd 593d 1261 113b 1036 f7bc 9470 b7bc
00000220: dcf9 9dbd 52c3 f8bc 34dd a23d 19b1 ba3d
00000230: 12a7 7a3d 461c f5ba 8f0e abbd c844 d3bc
00000240: bed3 f63c 802f 003e 23b0 663c a6a1 bc3b
00000250: b49c de3c 5673 ca3d ac44 813d edb9 acbd
00000260: 769b 5a3d 4f54 233d 723f 433d 740d 9dbd
00000270: c61f 1e3d 03c0 26bd 639e b93d 99aa ecbc
00000280: ee0a 723d 55d7 98bc c7c4 64be 9cda c73d
00000290: a945 6d3d 04f4 703d 60d9 b53b 4623 013e
000002a0: 5ed9 0ebd 06d5 4cbd 4e2a 5cbd 5cbb d0ba
000002b0: afc1 eabc c79a 10bd f9ee 463d 1085 0abd
000002c0: 2351 dc3c 0f19 8dbb e321 9b3d 2547 d33b
000002d0: 28d7 5f3d 97b2 aabb afe1 f1bd 5c9f 993d
000002e0: fd67 3cbd c78d a2bd 9d0e ad3d 5625 10bd
000002f0: 5a95 34be aba2 93bd df17 b13d 06e1 36bd
00000300: d480 53bb 7ec3 b13c 4260 df3d 184e febd
00000310: e7ce a2bd 825a b7bb 2eda cabd 3710 2b3d
00000320: 4a74 d63c f979 043d 4da7 09bd bc78 97be
00000330: 5886 d6bd fc2a e03c 73ee fd3c 076a e83c
00000340: aed8 61b8 4b50 723d 6015 3a3b 9871 c8bd
00000350: 0152 2c3d 03fc 8bbd 99cc 963d 73ab 8ebc
00000360: 3fbe 13bd ddd8 08bd c536 fbbc 5b00 42bd
00000370: 1196 283d ecfb c43c db8b 8fbc 91a9 65bd
00000380: 6a09 643d e501 81be 2c43 43bd 7897 fabd
00000390: 8596 1d3d c1e7 42be 8ff5 a4bd 59ca dd3c
000003a0: b341 29bd 9ebc d23d 08c7 e23b ff43 8e3d
000003b0: 8393 e1bc 161c e7bc 7fd7 5abc 94ec 46bd
000003c0: 02db 84bc 80b1 d53d 3c61 283c 32f7 533c
000003d0: d409 9f3c d5e7 ccbd 99a3 febc 1ac5 eebd
000003e0: 89fb c23d 8609 0f3d f5b5 273d b830 81bc
000003f0: 3d9a a33d 1420 c4bc 6507 02bd 1e3b 053d
-0.004253076 0.104414165 -0.022283237 -0.04973077 -0.075904824 0.094540685 -0.0070829764 0.03772848
-0.17114227 0.037641093 0.09253888 -0.05409302 0.00019082612 0.0025849624 -0.01590961 -0.07382551
0.072906144 0.06460468 0.06712006 -0.046884943 -0.04847171 -0.06883547 0.061201323 0.04427015
0.016189547 -0.0072444766 0.08815716 0.02045469 -0.0447039 -0.06097191 0.0337342 0.0012195426
0.043327115 -0.10869306 -0.24483067 0.017061317 0.03343113 0.030287696 -0.030804545 0.073559806
0.09833556 -0.0123105645 -0.026521778 0.0023151475 0.022603454 -0.042085312 0.014774497 0.046477508
-0.06699273 0.039129652 0.013120638 -0.044081308 -0.044590365 -0.027203267 -0.12822208 0.039569058
0.018331757 0.08811477 -0.02563137 0.006800282 -0.19315043 0.0661996 0.025309393 -0.024162281
0.045339365 0.13313423 0.02717391 -0.040309515 -0.034015827 -0.0336762 -0.0132374205 -0.06378214
0.015285363 0.046627875 -0.01744658 -0.250502 -0.09353681 0.006357852 -0.024879776 0.055512294
0.10571128 0.01875194 0.01133967 -0.009191434 -0.047475252 0.006766297 0.028613891 0.1006158
-0.057676688 -0.021119857 0.045245167 0.01461475 0.035000905 0.051201545 0.0313611 0.018672694
0.046334017 -0.23523012 0.0924663 -0.109741434 -0.054305255 -0.047197264 0.06718431 0.10376361
0.0101379175 0.022998113 -0.0005295763 -0.020183131 0.023118457 -0.008436361 -0.019636888 -0.06715886
-0.0017398134 0.107882924 0.09507783 0.011989419 0.10511551 0.061068937 -0.08974783 -0.0044849054
0.018488111 -0.07852519 -0.085474014 0.020000871 -0.007656022 0.0917448 0.043587152 0.0072168303
0.0038475834 0.07436656 0.090768375 0.04094305 0.053174555 0.0022183103 -0.030177146 -0.022392549
-0.077136725 -0.030366573 0.079523474 0.0911581 0.061194487 -0.0018700443 -0.08352386 -0.025789633
0.030130263 0.1251812 0.01408008 0.0057565747 0.027174331 0.0988528 0.06311926 -0.084339
0.053370915 0.039875325 0.047667928 -0.076685816 0.03860452 -0.04071046 0.09063413 -0.028889941
0.059092455 -0.018657366 -0.2234069 0.09758493 0.05792776 0.05882646 0.0055495948 0.12611112
-0.034875266 -0.050007842 -0.053751282 -0.0015924978 -0.028656809 -0.035303857 0.048567746 -0.033818305
0.026894158 -0.0043059657 0.07574823 0.00644769 0.05464855 -0.005209278 -0.11810624 0.075010985
-0.04599761 -0.07937198 0.08450053 -0.035191856 -0.17635098 -0.07208761 0.08647131 -0.044648193
-0.0032272832 0.021699663 0.109070316 -0.12417239 -0.0794962 -0.005595506 -0.09904896 0.04176351
0.026178498 0.032342885 -0.033606816 -0.295843 -0.10474843 0.027364247 0.03099749 0.02837087
-5.384598e-05 0.059158605 0.0028394088 -0.09787291 0.042070393 -0.06835177 0.07363243 -0.017415738
-0.036070105 -0.033409942 -0.030665765 -0.04736362 0.04115874 0.024045907 -0.017522743 -0.056069914
0.05567304 -0.25196758 -0.047671482 -0.122359216 0.038473625 -0.1903372 -0.08054649 0.027074026
-0.04132242 0.10289882 0.006920699 0.06946563 -0.02753616 -0.028211635 -0.013357042 -0.048565462
-0.016217712 0.10434246 0.010277089 0.012937354 0.019413866 -0.10005156 -0.031083869 -0.11658688
0.09520633 0.03492119 0.040945012 -0.015770301 0.07988403 -0.023941077 -0.031745333 0.03252708

fc2.bias f4 [128]
00000000: 7f6f a43a 653e 513d b1f1 f33d 0734 2f3d
00000010: 869f 1c3d d609 bc3a d4cc bf3d 43db 90bd
00000020: 46f4 403d af8e 333d 2329 db3d 8160 4abd
00000030: 2cb1 4f39 503e 23bd 5932 10bd 6706 3ebc
00000040: 02c3 b0bd 215e b6bd 4787 cebd fab6 33bd
00000050: 280c abbd 4bdc f23c 03fc 5cbd 644b 27bd
00000060: 39f0 2f3d 6664 373d bff8 e33d bc91 9d3d
00000070: 9fa0 a73d c280 9f3d 5bda 763d 311e f03c
00000080: 9746 8ebc 8fe5 2dbd 6a00 2e3d 04eb 4cbb
00000090: 47bd 393d 1206 a3bd 3b46 d3bb 0fc2 523d
000000a0: 3a32 81bd 4e89 a8bd 1c3c 453d df93 8f3a
000000b0: 048b 133d 6644 bdbd 915a 4d3d bb53 ddbc
000000c0: d303 ac3c fe8a 09bd 263c 523d 1e36 773d
000000d0: 1721 0d3d 3c5b 79bd 63ff 22bd c12e 61bb
000000e0: f1c0 35bd 9e88 183d 8795 a13c bb89 e03d
000000f0: 8ccb 48bd df9e bf3c cdd5 483c d2d4 713d
00000100: 7246 26bc cf2c 20bd 973b 20bd a351 553d
00000110: 03ed 32bd 7906 263d e064 65bd e28a 0a3c
00000120: ff81 0f3d 71fb 20bd bb7c bf3c 9175 fe3c
00000130: 5f9c 53bd 9cdf 01bd d22f a83d 505d 86bc
00000140: 3a1c ca3d 49f1 9d3b 4fe4 843d a092 11bd
00000150: 8645 903d 25ca 66bd e712 8c3d aecf 783d
00000160: 7b5f 2dbd 44b4 d33c 4ca2 363d aea3 fa3c
00000170: 52ca 24bd 0103 9a3d e595 56bc d51c 4d3c
00000180: dfcf b13d 474c aebd 9c15 033d e341 5b3d
00000190: 848f 9e3d 13d1 0fbc 513a 84bd 2603 a83c
000001a0: d390 a23d 4e7a 7f3d b073 f83c dd66 bc3c
000001b0: 6cee 02bd aee2 f23c 050c b1bc 6e0a c7bd
000001c0: ae10 9d3d 76ea deba d345 e63d 789b da3d
000001d0: 2666 c93d c6b2 13bd f1ae 13bd 4361 59bd
000001e0: f4dc 8cbd d36d c13d c7dd c83d 1edb b73c
000001f0: fe7b fa3d a2d8 11bd 7774 ca3d 1dbe 93bd
0.0012545435 0.051084895 0.11911333 0.042774227 0.03823807 0.0014346193 0.0936524 -0.07073071
0.047107957 0.043837246 0.107012056 -0.04940844 0.0001980706 -0.039854348 -0.035204265 -0.011598206
-0.08630945 -0.089046724 -0.10084396 -0.043875672 -0.08351928 0.02964606 -0.053951275 -0.040843382
0.042953704 0.04477348 0.11131429 0.07693812 0.08184933 0.077882305 0.060266834 0.029311271
-0.017367644 -0.042455252 0.042480864 -0.003126801 0.045346525 -0.07960142 -0.006447581 0.0514546
-0.06308408 -0.08229314 0.048153028 0.0010954103 0.036021248 -0.092415616 0.0501352 -0.027017465
0.020997917 -0.03357982 0.051326893 0.060354345 0.034455385 -0.060878024 -0.039794337 -0.0034360143
-0.044373456 0.037239663 0.01972462 0.1096377 -0.049022242 0.023391185 0.012258005 0.059040852
-0.010148631 -0.039105233 -0.03911933 0.052079808 -0.043683063 0.040533517 -0.056004405 0.008455964
0.035036083 -0.039302293 0.023374906 0.03106192 -0.0516628 -0.03170739 0.08212246 -0.016401917
0.09868665 0.004820023 0.06488859 -0.035540223 0.070445105 -0.056345124 0.06839543 0.060744934
-0.042327385 0.025842793 0.044588372 0.030595627 -0.04023201 0.07520104 -0.013097261 0.012519081
0.086822264 -0.085106425 0.03200303 0.05352963 0.07742217 -0.0087778745 -0.064564355 0.020509314
0.07937779 0.0623725 0.030328602 0.022998268 -0.031965658 0.029649105 -0.021612177 -0.09718786
0.07669197 -0.0017007131 0.11243787 0.106741846 0.098339364 -0.036059164 -0.03605551 -0.05307127
-0.06878081 0.094447754 0.09807926 0.02244335 0.12230681 -0.035606988 0.09885495 -0.072139956

fc3.weight f4 [2, 128]
00000000: cd10 b53d ebdb 923d 4676 d43c 59e6 9ebd
00000010: fe81 893d 8095 e83d bf77 ac3d 0b01 9cbe
00000020: 9ebe dc3d 8722 d13d b258 1abd e286 2ebd
00000030: 0ccd c03d c71b 91be 5882 b03d 5903 ee3d
00000040: 40e9 d33c ddf5 81bd d6b1 86be 5cef aebd
00000050: 5ff1 96be 5e25 bd3c 6258 cbbc 74bc be3d
00000060: a3ec 9e3c be98 53bd fe87 13bc 4482 843d
00000070: 2b73 aa3d 31eb b03b f34d 32be d2d4 04be
00000080: 0cfc a83d ddb5 493d 302d b4bd aa6f b8bc
00000090: ed74 3e3c 8b53 6d3d 7cd5 30be d824 65bc
000000a0: 729f 43be b01d 2cbc 5ccb f4bc 93f4 80bc
000000b0: 1ff0 8fbb 78b6 33be 3576 693c 81c7 1f3d
000000c0: 1fb3 333d 9cf6 b4bd 8892 9abd 055f 843c
000000d0: 8933 e83c 064a 12be 1f7c 3fbd 2ee6 5bbd
000000e0: cd53 4a3d 7435 b6bd 8b40 3fbd 98a8 ce3d
000000f0: b126 0fbc a94f c83d 4d2a 20bc e331 70bd
00000100: 78c1 b0be 2be2 d63d b7cc 81bd eac1 ab3d
00000110: 51f4 a63d 84f9 853c f20d 933d 6097 7fbd
00000120: 4739 b53d 380d ad3d ae46 de3d 1b3f 143b
00000130: 5958 dc3c a120 40bd d7cd 893d 1071 c43c
00000140: bd7b a03d 1398 c63d cb0f 213d 94cc 85bd
00000150: 023d 593d c3ef 1a3d 9826 40bc 7136 8fbd
00000160: a704 7e3d 0bf4 fcbb 6e4a dd3d 42df 9dbc
00000170: cd4e e7bb 4e6f f53d c4d5 8fbe eb67 87be
00000180: 14c8 d63d d9d9 1d3d 20c9 40bd 59d8 793d
00000190: 0aff c33c 3e6b 21be 1228 233d 36c7 8f3d
000001a0: 15ae a53d 994d 173d 1da9 ec3d 0233 373b
000001b0: b633 88bd f5fa 333d ea52 163d 98fa 8ebd
000001c0: c14d fd3d 4d30 343c 435d 933d 9c54 333d
000001d0: a59b 0b3c cfa5 823c 9472 b7bb 2d68 813d
000001e0: d5ac 0a3d edba 893d ff16 e4bc 4209 463d
000001f0: 12b5 093d deb8 b3bd 6450 eb3d 3741 49ba
00000200: ac1f d13d 8ae1 383d 93eb bf3d 4149 653d
00000210: 2f9f 563d d12b 9a3d faa7 e73d 08b1 47be
00000220: 26cc 3ebd cd36 7e3d 7bab bf3d 56ae f3bc
00000230: ea6b e73d 4a6a 6fbe 5fe7 e83b 59e9 f23d
00000240: 46c6 59bd 74aa a3bd 60d4 53be c7bf c83b
00000250: 8981 81be 022b c6bc 276e 8bbc 4b66 893d
00000260: 1110 923d efef 693d b393 dc3d 943a f03d
00000270: e793 02bd 0439 b7bd 2083 85be 5e97 59be
00000280: 196b a63d 50c9 75bd cc71 79bc 5770 743d
00000290: 2cdc a7bd dbdf c83c 83ab 2ebe 1295 243d
000002a0: f697 29be 60eb d83c 6f0d adbc 5dd3 12be
000002b0: a838 87bd d26b 16be 8186 e93d f4ba 0d3e
000002c0: dcd2 a33d e863 9dbd 2c88 403c d607 4d3d
000002d0: 316e 1f3d c032 6abe 0619 2fbd b08f 94bd
000002e0: 8d71 2a3d e0bb 2ebd 2853 563d 1a5f e23d
000002f0: d78e 9dbd 09e0 173d ea49 9bbc ede3 e93c
00000300: 87aa 9abe 9e8d 543d 46bc 68be f8fd 09bc
00000310: 2df5 ec3d 0a56 52bd 687a 63bd 7bc8 a03d
00000320: fd18 cfbc afc7 9b3d fa02 04bd a2e0 6f3d
00000330: 49f0 15bd da8a d13d 23d4 ab3d e91e ef3d
00000340: 2cba b3bc 7e40 69bc 2cbd 72bd 3e47 13bd
00000350: e340 633d d7d2 82bc c951 9c3d 6d97 8c3d
00000360: 7fa7 353c 9577 15bc f98a 363d 25f1 bcbd
00000370: 748b cabc 48ca 3c3c fd52 59be 5aa5 88be
00000380: 7d83 febc b3d6 a33c 5b78 5cbd 5668 c93d
00000390: 8b7b f53c f522 47be b2ea 2e3b bd96 37bd
000003a0: 2ab0 bf3d 00c2 4cbd 29d7 813b 10d7 803d
000003b0: 860c 94bd b705 3abd d6d3 003d 0a66 dfbd
000003c0: a5e0 a3bc abe7 053d 0444 3d3d 88e2 d03d
000003d0: 5acd d33d 3f3d 363d 73a7 173d 1edf bcbc
000003e0: 6731 f6bb 935c 8e3d 6d09 cf3d 9159 c93d
000003f0: 996b 103d 48af cdbd aac0 cb3d 3ad2 5cbd
0.08841095 0.07170852 0.025935303 -0.07758779 0.06714247 0.1135664 0.08421277 -0.30469546
0.10778545 0.10211664 -0.037682243 -0.042609103 0.094141096 -0.28341505 0.08618611 0.11621732
0.025868058 -0.06345723 -0.26307553 -0.08541748 -0.29481027 0.023089107 -0.024822418 0.09313288
0.019399947 -0.05165934 -0.009004591 0.06470159 0.08322748 0.0053991308 -0.17412548 -0.1297181
0.08251199 0.049245704 -0.08797681 -0.022514183 0.011624557 0.057941 -0.17268938 -0.013985835
-0.19103792 -0.010505125 -0.029882126 -0.015741622 -0.0043926383 -0.17550075 0.014249374 0.03900862
0.043871995 -0.088360995 -0.0754748 0.01615859 0.028344886 -0.1428605 -0.04674923 -0.053686313
0.049396325 -0.08896914 -0.046692412 0.100907505 -0.008737252 0.09780819 -0.00977571 -0.058641326
-0.34522605 0.10492357 -0.063378744 0.083865955 0.081520684 0.01635433 0.07180394 -0.06240022
0.088488154 0.08449787 0.10853325 0.0022620622 0.026897596 -0.046906117 0.06728714 0.023979694
0.07836101 0.096969746 0.039321702 -0.06533161 0.053036697 0.03782631 -0.0117279515 -0.06992806
0.062016156 -0.007719522 0.10805212 -0.019271497 -0.0070589543 0.1198412 -0.28092778 -0.2644647
0.104873806 0.038537834 -0.047066808 0.06099734 0.023925323 -0.15763566 0.039833136 0.07020418
0.08089844 0.036939237 0.11555693 0.0027953987 -0.06650488 0.043940503 0.036700167 -0.06981391
0.12368346 0.010997844 0.07195523 0.04378186 0.008520995 0.015948204 -0.0055983756 0.06318698
0.03385623 0.067251064 -0.027842997 0.048348673 0.033619948 -0.08775495 0.11489943 -0.0007677259
0.10211119 0.045136966 0.09371104 0.055978063 0.052397903 0.075278886 0.11311336 -0.19501126
-0.04658141 0.06206398 0.09358879 -0.029746216 0.1129988 -0.2338039 0.0071076597 0.11860914
-0.053167604 -0.07991496 -0.20686483 0.0061263773 -0.2529414 -0.02419043 -0.017020298 0.06708964
0.07131971 0.057113584 0.10770359 0.11729923 -0.031879332 -0.08946422 -0.26076603 -0.21249148
0.08125896 -0.06000644 -0.015224885 0.059677448 -0.08196291 0.024520805 -0.17057614 0.040181227
-0.16561875 0.026479423 -0.02112457 -0.14338441 -0.06602603 -0.14689568 0.11402608 0.13840848
0.079992026 -0.07685071 0.011751216 0.0500563 0.038923446 -0.22870922 -0.042748474 -0.07253969
0.041612197 -0.04265964 0.052325398 0.110532954 -0.0769326 0.03707889 -0.018956143 0.028551066
-0.30208227 0.05189287 -0.2272807 -0.008422367 0.11570201 -0.051351584 -0.055536658 0.078507386
-0.02528047 0.07606446 -0.0322294 0.058563836 -0.036606107 0.10231562 0.08390071 0.116758175
-0.02193936 -0.014236568 -0.05926244 -0.035956614 0.055481803 -0.015969677 0.07632787 0.0686482
0.011087297 -0.009122749 0.04456613 -0.09225682 -0.0247247 0.011522837 -0.21223064 -0.26688653
-0.031068558 0.019999838 -0.053825717 0.098343536 0.029966136 -0.19446929 0.0026690182 -0.04482149
0.093597725 -0.0499897 0.0039624167 0.0629102 -0.07228951 -0.045415606 0.031452022 -0.10908134
-0.02000458 0.03269164 0.046207443 0.101994574 0.10341902 0.044492003 0.037024926 -0.02305561
-0.0075132134 0.06951251 0.1010922 0.098315366 0.035258863 -0.10043198 0.09948857 -0.053911425

fc3.bias f4 [2]
00000000: 727d d93c adbb e7bc
0.026549075 -0.028287733
