models/dqn_cartpole.pt (torch, 8145 bytes, 6 tensors)

fc1.weight f4 [32, 4]
00000000: 34e1 b23e 76db 01bf da09 babf b8ed 88be
00000010: ce35 23bf aff1 cb3e 04ae a13f f254 673e
00000020: 724c b5bc 098e 003d 2a21 663f 4f39 d73d
00000030: 7bca f4bd f518 313e 0ccd 8abf 69c7 95bd
00000040: 1b52 6fbe 7887 2d3d 07d1 f4be 0cc6 75be
00000050: 352f 6dbe 6aed 9fbe cb17 933f 855c 753d
00000060: 40bc 1f3e 289d e33d f062 373f 2025 e23d
00000070: 56fe 0ebe e9cb acbc 5c42 013e 0464 503e
00000080: f97c ac3e 084d 01be 3c19 7f3f f782 023e
00000090: 8319 ecbd 981c d4bd 5438 bdbf e141 5bbe
000000a0: 1278 80bc efeb 213e 9a52 973f 12ae 043e
000000b0: 9cb0 a43d 2f7d 7d3e b922 d93e 3b46 5dbe
000000c0: c591 3dbe 039b 58be 2485 81bf b996 efbd
000000d0: 1053 1a3f 7758 163f 410e 33bf 61bd bb3e
000000e0: 0978 863d d250 2bbe bbc2 c1bf 2222 75be
000000f0: 1a4d 74bd c039 7f3d efb5 ad3f bf8a 923d
00000100: e279 cfbe 62fb 273f ee26 a63f 7296 883e
00000110: 6c75 b83d 5df8 fd3e 9935 f1bc 9f5f 923c
00000120: 2967 b03d eff4 d5bc 71a4 a63f 9270 003e
00000130: dd40 e03c 68f2 52bf 6d40 73bf 84fe 76be
00000140: 76a4 823e 9677 d7be 65e6 38bf c138 2fbe
00000150: 3cf5 2a3e 81d1 82bd 4f8d b9bf bba3 81be
00000160: fbdb 073e 4357 d73e 105c 653f e487 3e3e
00000170: 3591 023f 2671 ebbe 04fa eebf 4328 02bf
00000180: 0de7 1e3f 1e06 b6be ddbb d3bf d418 d6bd
00000190: 0a17 cd3e 4fb4 8b3e 4d67 903e a04b 873e
000001a0: 4fbb 903d 7a58 edbe c9b5 afbf b87c 2abe
000001b0: ce1a 533b ffad c83e 5178 49be 0706 8cbe
000001c0: ecfc 3abe b166 063f 78f2 903f a4aa 813e
000001d0: 426e 24be 845e 0ebf ee4d 94bf 4e10 743e
000001e0: 84ba 57bb c24f febe 4b58 4cbf fdf9 7fbe
000001f0: c7dd 3cbe 467a 883e f1cb 943f 9838 063e
0.3493744 -0.50725496 -1.4534256 -0.26743865 -0.63753974 0.39832827 1.263123 0.22590998
-0.022131179 0.031385455 0.89894354 0.105089776 -0.119526826 0.17294677 -1.0843825 -0.07313425
-0.23371165 0.04236552 -0.47815725 -0.2400133 -0.2316254 -0.3123582 1.1491636 0.059902687
0.15599155 0.111139596 0.7163534 0.11042237 -0.13964209 -0.021093326 0.1262297 0.20350653
0.33689097 -0.12627041 0.9964788 0.12745272 -0.115283035 -0.10357016 -1.4782815 -0.2141185
-0.015682254 0.15812658 1.1822083 0.12957028 0.08041498 0.24754785 0.42409304 -0.21608822
-0.18512638 -0.21152882 -1.0118756 -0.1169867 0.60282993 0.58728737 -0.69943625 0.36667922
0.06565864 -0.16730049 -1.5137552 -0.23938802 -0.059643842 0.062310934 1.3571147 0.0715537
-0.40522677 0.65617955 1.298063 0.2667728 0.090067714 0.4960355 -0.029444503 0.017867861
0.08613426 -0.02611777 1.3018934 0.12542942 0.02737468 -0.8240113 -0.9502018 -0.24120528
0.255161 -0.42083424 -0.72226554 -0.17111494 0.16695112 -0.06387616 -1.4496249 -0.2532023
0.1326751 0.42058763 0.895936 0.18606526 0.5100282 -0.45984763 -1.8670049 -0.50842685
0.62071306 -0.35551542 -1.6541706 -0.10453954 0.4005664 0.27286002 0.28203812 0.26424885
0.07066976 -0.46356565 -1.3727351 -0.16649139 0.0032212022 0.39195248 -0.19674803 -0.27348348
-0.18260545 0.52500445 1.1323996 0.253255 -0.16057685 -0.5561297 -1.1586282 0.23834345
-0.0032917568 -0.49670225 -0.79822224 -0.24997707 -0.18443976 0.26655787 1.1624738 0.13107526

fc1.bias f4 [32]
00000000: 7285 a93f 6b97 8e3f fc6c 77bf 167d 7abf
00000010: 0e77 8e3f a2f6 09be 5559 35be 73bd 633f
00000020: c6d2 bb3e 4f6c 9d3f 20d1 9dbf 534a 803f
00000030: e582 80bf a481 453f f8f3 a63f 4f79 0c3e
00000040: 4d3a 963f 7ab6 94bf 8137 643f b56d 213f
00000050: c6c2 88bf e308 a83f 9a36 96bf 3c33 c1be
00000060: d2f1 fd3e df6e 893f 836c 633e db56 e73d
00000070: f5a1 893f 5d8e 3bbe fb23 d2bd 59b2 97bf
1.3243849 1.1139959 -0.9665067 -0.97847116 1.1130083 -0.13472989 -0.17709859 0.8896095
0.36684245 1.2298678 -1.2329445 1.0022682 -1.0039946 0.7715094 1.3043203 0.1371815
1.1736542 -1.1618187 0.8914719 0.63058025 -1.068444 1.3127712 -1.1735413 -0.377344
0.49598557 1.073696 0.22209363 0.11295863 1.075255 -0.18316026 -0.10260769 -1.1851302

fc2.weight f4 [32, 32]
00000000: d90b 683d 5b0d 14c0 bb1f 603e c27a 1140
00000010: 655e 04bd 106f a9be 84bb 39be c66c 59bf
00000020: f793 cdbe 354a 35be e8b5 563e ff38 f8bc
00000030: 6644 0140 5255 f4be 3ffd 57bd fc9a bdbe
00000040: 4a3c 0ac0 7bbf e63e a10b 09c0 aefb 903e
00000050: d379 c63f 970d 3c3e 6f23 8dbc 90fe 163f
00000060: 4251 fd3e 2fa6 2ebf 4316 1e3f d4fd b03e
00000070: 6f3c 06c0 e071 a43f 1624 ce3e 6223 873e
00000080: 283d f83e 6fe7 123f fb9f 45be ab36 e1be
00000090: 927d 123f c086 1ebe 7d30 fabd 05cb 843e
000000a0: 50a3 87bd 203d 263f 08d3 cdbe c732 853e
000000b0: abfc d6be c858 433d 699e 193f 55da b8be
000000c0: d26d d03e 320b e4be 92b8 293e d1bd edbd
000000d0: 46a8 0fbf 292d bd3e c0e2 e63c 1baf 7a3c
000000e0: a7cb acbe d2fc be3e 4694 22be 3a5b b7bc
000000f0: 2c21 053f 0463 89bd c383 0abe ea44 8fbe
00000100: fa2b 1e3f 6838 253f 2f7b bfbe 4b74 02bf
00000110: 8a2d b33e 5423 abbe 89d8 94bd 9b10 e03e
00000120: 2391 debd 0edd 013f 4e45 ffbe a7fd e13e
00000130: 5451 24bf 106f 9a3c f939 ec3e 5c15 18be
00000140: 0cf9 043f 858f f6be 0cc1 bb3e 3948 9c3c
00000150: 1f24 c4be 1cae 3c3e 4521 5e3d 4db6 173e
00000160: 734a 25be f2fd 833e 3cc7 fa3a 99b8 adbd
00000170: 6a0d 0b3f 7641 3dbe 1b66 42be dbf8 02bf
00000180: 5aa8 f83e 6bfc 3b3f 4de2 fcbd ba53 10bf
00000190: eeda 6c3e af76 39be 7e61 efbd 2878 dd3e
000001a0: ba24 f23d aecc ea3e 9c99 e3be 3615 373e
000001b0: b691 d1be 021c 863e d679 083f 6daa 8dbc
000001c0: ccdf ac3e 6ad2 08bf 0a22 6f3e fbaa 27be
000001d0: 571b abbe 3d35 533e 5fc9 383e 9bc9 223e
000001e0: 0e81 08bf 8616 003f 8aa9 a4be 7fab febd
000001f0: c3a9 1d3f 3ad8 a0be d8e8 45be 0c9a b7be
00000200: 1ea4 fdbf 5e08 c83d e13a 1340 01b7 623e
00000210: 6967 8cbf eeeb 193f d029 553e a5fb e1be
00000220: 1d52 133e 438b dbbf 5be6 7140 2711 abbe
00000230: 2f3d a13e b9fa 56be 3996 b2bf 3b40 123f
00000240: d35f 163d 37ed f13e 3823 dc3e 6360 f03b
00000250: fbff ff3e 6878 54bf d724 a23f 14e9 453e
00000260: 7160 8abe 155b bbbe bb1a 553e 613e 113e
00000270: d757 ff3d ace7 16bf 2c38 223e f396 4440
00000280: f6ca 1ac0 2836 e3bc 1110 ba3f 5ae3 bb3d
00000290: 2eb0 57bf fa54 373f 6bb9 a93e b834 dfbd
000002a0: c561 6a3e 23ba 19c0 b65a 0040 fd60 41be
000002b0: 4cd3 d03c f49d 69ba ea30 0ec0 ba19 113f
000002c0: e5bd 8c3e fe12 e33e cde2 a33e f917 bdbe
000002d0: 38b9 903d 6b62 c1bf c639 883f ccc3 583d
000002e0: 3977 21bf 1dd3 6dbe 2f74 d6bc 0f2e f5bd
000002f0: 42dc 113d 1e37 16bf d54b c5bd 08d0 0640
00000300: 604a 3cc0 a974 473e eb32 e23f 0130 cd3d
00000310: dd1d 87bf 2d4d 683f a346 8d3e c1e6 7fbe
00000320: 0b58 843e 2cb0 37c0 a4d8 2c40 908e bebd
00000330: ea5b 413e 968c 35be dd2e 1cc0 3053 353f
00000340: 7165 6a3e 0457 ed3e 2ac5 073f 7937 19bf
00000350: 4faa c73e d854 d7bf 2e6d b23f b1de a8bd
00000360: 3e53 0ebf fd13 83bc 476e fabd e1bd bfbe
00000370: fa40 943b 9ce4 3ebf 4cff 00be dd47 0c40
00000380: 70c4 c53e 6f87 093f 44aa ddbe 785b 00bf
00000390: 1b4a a03e f9bf 9eba 740e e73d 2cd0 b53e
000003a0: 83d4 06be 55fb 233f f54b a8be 338d fc3e
000003b0: b46c ffbe 93d1 2c3e 66f4 1b3f 369a 00be
000003c0: 3469 833e 4a6a 24bf 7cb2 6f3e fd5a 66be
000003d0: e13f ebbe 8032 a33e b316 38be 4732 a03e
000003e0: d419 ebbe 7f1c 0a3f c956 9dbe a40b 8cbd
000003f0: ee12 213f eefc 24bc 3c28 00be 7960 cebe
0.056651924 -2.3133152 0.21887104 2.2731175 -0.032316584 -0.33092546 -0.18137938 -0.849316
-0.4015195 -0.17704089 0.20967829 -0.030300615 2.0197997 -0.47721344 -0.05273175 -0.37032306
-2.1599298 0.45067963 -2.1413348 0.28317016 1.5505928 0.18364559 -0.01722881 0.5898218
0.49476057 -0.68222326 0.6175272 0.34568655 -2.0974386 1.2847252 0.40261906 0.26394182
0.4848416 0.5738439 -0.19299309 -0.4398702 0.57222855 -0.1548109 -0.1221628 0.25936142
-0.06622946 0.6493702 -0.40200067 0.26015303 -0.41989645 0.04769209 0.6000734 -0.36104074
0.40708786 -0.4453979 0.16574314 -0.1160847 -0.5611614 0.36948517 0.028184295 0.015300537
-0.33749124 0.37302262 -0.15876874 -0.022382367 0.5200374 -0.06708339 -0.13526826 -0.27982265
0.6178585 0.64539194 -0.3739867 -0.509587 0.3499568 -0.3342539 -0.07267863 0.4376267
-0.108675264 0.5072793 -0.49857563 0.44138834 -0.64186597 0.018851787 0.4613798 -0.14851898
0.51942515 -0.48156372 0.3667072 0.019077407 -0.38308808 0.18425792 0.054230947 0.14815636
-0.16141681 0.25779682 0.0019132863 -0.08482475 0.54317343 -0.18482003 -0.18984263 -0.51160973
0.48565942 0.73432034 -0.12347851 -0.56377757 0.2313039 -0.1811168 -0.11688517 0.43255734
0.11823411 0.45859283 -0.44453132 0.17879185 -0.4093148 0.26193243 0.53310907 -0.01729318
0.33764493 -0.53446066 0.23352829 -0.16373818 -0.33419296 0.20625778 0.18045567 0.15897219
-0.5332192 0.5003437 -0.32160598 -0.12435054 0.6158716 -0.31414968 -0.19327104 -0.35859716
-1.981571 0.09767221 2.3004687 0.22140123 -1.0969058 0.60125625 0.20816731 -0.44137302
0.14386792 -1.7151874 3.7796848 -0.33411524 0.31491992 -0.2099408 -1.3952094 0.5712926
0.03671248 0.47251293 0.4299562 0.007335709 0.49999985 -0.82996225 1.2667493 0.19327193
-0.27026704 -0.36592928 0.20810978 0.14183952 0.12467926 -0.58947253 0.1584174 3.0717132
-2.4186378 -0.027735785 1.4536153 0.09174223 -0.84253204 0.7161404 0.33149275 -0.10898727
0.22888859 -2.401986 2.0055366 -0.18884654 0.02549138 -0.00089117815 -2.2217355 0.5667988
0.27488628 0.44350427 0.32008973 -0.36932352 0.07066578 -1.510816 1.0642631 0.0529211
-0.63072544 -0.23225065 -0.026178448 -0.119716756 0.035610445 -0.5867785 -0.096336044 2.1064472
-2.9420395 0.19478096 1.7671789 0.10018922 -1.0555989 0.9074276 0.27592954 -0.2499037
0.2584842 -2.8701277 2.7007227 -0.093045354 0.18882719 -0.1772941 -2.4403603 0.7083006
0.2289026 0.4635545 0.53035223 -0.5985027 0.38997123 -1.6822767 1.3939569 -0.082456
-0.5559577 -0.016000742 -0.12228065 -0.37449554 0.0045243474 -0.7456758 -0.12597388 2.1918862
0.38626432 0.5372228 -0.43293965 -0.5013957 0.31306538 -0.0012111656 0.112820536 0.35510385
-0.13167004 0.6405538 -0.3287045 0.49326476 -0.4988762 0.16876821 0.609198 -0.12558827
0.256662 -0.64224684 0.2340793 -0.22495647 -0.45947173 0.31874466 -0.17977409 0.3128836
-0.45918143 0.5394973 -0.30730274 -0.06838158 0.6291951 -0.010070069 -0.12515348 -0.40307978

fc2.bias f4 [32]
00000000: 1ffb d2be 6d87 0f3f d23b f93e 1de1 b03e
00000010: bc24 ccbe 6f5b a2be b92f 09bf 4aeb f43e
00000020: 8d78 f33e db3b 803e 0e6d 3bbf 96b5 c5be
00000030: fb14 18bf e9f0 0ebf bd04 ab3e d984 23bf
00000040: 8712 23bf bace f83e 27c3 b03e 894c 79be
00000050: 69c2 a1be a60f 05bf 1611 0bbf 2957 ebbe
00000060: 461c 10bf c826 eebe 57ba 0f3f c298 03bf
00000070: 5c79 eebe 8a7d ffbe 9eab f8be 09ed fe3e
-0.41207215 0.5606602 0.48678452 0.34546748 -0.39871776 -0.31710383 -0.53588444 0.4783576
0.4755291 0.25045666 -0.7321328 -0.38615102 -0.59407014 -0.5583635 0.33402053 -0.63874584
-0.63700145 0.4859522 0.3452389 -0.24345602 -0.31593636 -0.51977 -0.54322946 -0.45964935
-0.5629314 -0.46513963 0.5614371 -0.51404965 -0.46576965 -0.49900466 -0.48568434 0.49790218

fc3.weight f4 [2, 32]
00000000: 2b12 ca3e 8333 063f 7bfe f83e 9549 253f
00000010: c48d de3e 2803 e2bf f738 f4bf 608e 123f
00000020: 8d25 073f e930 933e 1484 e0bf 3a9b bbbf
00000030: 09fe b7bf d710 08c0 2cce a53e 756b 2f3f
00000040: 45a7 3b3f 92cb 223f 563a e23e 1aae a8bf
00000050: ef9d cabf 3835 f2bf 77c2 ac3e 989d 243f
00000060: 734a e53e e275 aabe f7bb 193f 72e7 ccbf
00000070: 5fa6 81bf 97c6 0e3f fc5e 80be 1c82 253f
00000080: 9ea8 ccbf ffc1 113f 1d69 1c3f 8a7d 063f
00000090: 58a7 d0bf 1df4 6bbe 11ba 3ebe b597 e83e
000000a0: 68bd 043f aab5 163f e1f5 0d3f 64bb 5b3e
000000b0: 3fbc 75be 9533 1b3f 9d0f 343f 4ea5 dfbf
000000c0: 6dff e3bf 6385 003f 592c a5be 9561 d0be
000000d0: fb66 c0ba d44f a0bc ecec c8bf 2409 d0bf
000000e0: 56d0 d4bf 58d2 ccbf 4f0a d63e 4d12 093f
000000f0: 2471 f7be 6485 ebbf 9c87 d2bf babb be3e
0.39466986 0.5242235 0.48631653 0.645654 0.43467534 -1.7657213 -1.9079884 0.57248497
0.5279167 0.28748253 -1.7540307 -1.4656746 -1.43744 -2.1260278 0.3238386 0.6852334
0.7330211 0.63591874 0.44185132 -1.3178132 -1.5829448 -1.8922491 0.33742115 0.6430297
0.44783363 -0.33293062 0.60052437 -1.6008132 -1.0128897 0.55771774 -0.25072467 0.64651656
-1.5988958 0.5693664 0.6109789 0.5253531 -1.6301069 -0.2304234 -0.18625666 0.45428243
0.5185151 0.5887095 0.55453306 0.21458203 -0.23997591 0.6062558 0.70336324 -1.7472322
-1.7812325 0.5020353 -0.32260397 -0.4069945 -0.0014679128 -0.019569315 -1.5697303 -1.625279
-1.6626079 -1.6001692 0.4180474 0.5354355 -0.48328507 -1.8400083 -1.6447635 0.372526

fc3.bias f4 [2]
00000000: a528 b43e 1fd9 af3e
0.3518726 0.34345338
