models/dqn_cartpole.pt (torch, 72657 bytes, 6 tensors)

fc1.weight f4 [128, 4]
0	0x3f3c88f8	0.736465
1	0xbe6a93cc	-0.22907943
2	0xbf2431d4	-0.6413853
3	0x3d394df8	0.045240372
4	0x3eb01d1c	0.3439721
5	0xbd98b6a8	-0.07456714
6	0x3f23ec63	0.6403257
7	0xbe0ff854	-0.14059573
8	0xbeea73d4	-0.45791495
9	0x3eb36d88	0.35044503
10	0xbf483cbe	-0.78217685
11	0x3e8c3d3b	0.27390465
12	0x3f4c2240	0.7973976
13	0xbee6f3a6	-0.45107764
14	0x3e5f9b15	0.21836503
15	0xbeb96518	-0.3620994
16	0xbee0d902	-0.43915564
17	0xbd09fa01	-0.033685688
18	0x3f4d4944	0.8018992
19	0xbe3938cd	-0.18088074
20	0xbf50b091	-0.8151942
21	0x3ed83a66	0.42232054
22	0xbdb6a96d	-0.08919034
23	0x3eb434e6	0.35196608
24	0x3f09c574	0.53816915
25	0xbdbcba7f	-0.09215259
26	0xbddd17a6	-0.10795526
27	0x3dc87631	0.09788168
28	0x3e8993be	0.2687053
29	0xbe569215	-0.20954163
30	0xbececbfe	-0.4039001
31	0xbdbabe63	-0.09118345
32	0x3d4edd1a	0.050503828
33	0xbec93a36	-0.39302224
34	0xbead295c	-0.33820617
35	0xbe946f54	-0.28991187
36	0x3ddefb3f	0.10887765
37	0x3d9f8c40	0.077904224
38	0xbebd6603	-0.3699189
39	0x3d90ca38	0.0706982
40	0xbe783eee	-0.24242756
41	0xbec93a00	-0.39302063
42	0xbdb0dcf8	-0.086358964
43	0xbe919f70	-0.28441954
44	0x3d272a5e	0.04081189
45	0x3e67adc9	0.22624888
46	0xbd3dd0c0	-0.046341658
47	0xbc828897	-0.015934272
48	0x3e305221	0.1721883
49	0x3e038945	0.12845333
50	0xbe4fcbb9	-0.20292558
51	0x3e2e5f3f	0.17028521
52	0xbef02c4f	-0.46908805
53	0x3e2662f8	0.16248691
54	0xbe5e33a6	-0.2169939
55	0xbdb3849b	-0.08765527
56	0xbf0f71fd	-0.5603331
57	0x3e936373	0.2878681
58	0xbf2baa4b	-0.6705672
59	0x3e9dd99c	0.30830085
60	0x3e4b7869	0.19870152
61	0x3df02fd2	0.11727871
62	0xbfaa0e41	-1.32856
63	0xbca109c8	-0.019657984
64	0x3ee3015c	0.44336975
65	0xbe9b64e0	-0.303504
66	0xbdefb5da	-0.11704607
67	0x3d045017	0.032302942
68	0xbe82c2d1	-0.25539258
69	0xbe97469f	-0.29546067
70	0xbf01a495	-0.5064176
71	0xbeb56e27	-0.35435602
72	0xbee12996	-0.4397704
73	0xbe98b253	-0.2982355
74	0xbe436835	-0.1908272
75	0xbe8fd92e	-0.28095382
76	0xbc584369	-0.013199666
77	0xbd0cd545	-0.034383077
78	0x3dc1f3e5	0.09470347
79	0xbd3f169a	-0.046652414
80	0xbeaf9daf	-0.3429999
81	0xbd76a1c4	-0.060212865
82	0xbe3bdb81	-0.18345453
83	0xbd8aea82	-0.0678301
84	0xbd05fc21	-0.032711152
85	0xbdb62eb0	-0.08895624
86	0xbd905c49	-0.07048852
87	0xbe04e0b7	-0.12976347
88	0x3ceb74ec	0.028742276
89	0x3dfa6d9c	0.122279376
90	0xbefc0201	-0.4922028
91	0x3e7c095f	0.2461295
92	0x3d5e8775	0.0543284
93	0xbc2f9e4a	-0.010718891
94	0x3e73c720	0.23806429
95	0xbeb61c8f	-0.35568663
96	0x3ead4309	0.33840206
97	0x3df1775f	0.11790346
98	0x3f5e0bf1	0.8673697
99	0xbdc7490d	-0.0973073
100	0xbdf04d68	-0.11733514
101	0x3ec3c677	0.38237354
102	0x3da6c018	0.08142108
103	0x3e853e08	0.2602389
104	0xbdae5027	-0.085113816
105	0xbd1f3115	-0.038865168
106	0x3f3fb59a	0.74886477
107	0xbe0fad9f	-0.14031075
108	0xbeb01e92	-0.34398323
109	0xbc829e2b	-0.015944561
110	0x3f06efba	0.52709544
111	0x3b52a22a	0.0032140114
112	0x3cb379ee	0.021908727
113	0xbe3aba61	-0.1823516
114	0x3e1b0426	0.15138301
115	0xbe75eb9c	-0.24015659
116	0xbea6c794	-0.3257414
117	0x3e3e49fc	0.1858291
118	0x3f92ab68	1.1458559
119	0x3e8c4cfe	0.2740249
120	0xbdbcafa1	-0.09213186
121	0x3da1e7a1	0.07905508
122	0xbed8f9f4	-0.423782
123	0x3dbf7e04	0.093502074
124	0x3deffbe1	0.11717964
125	0xbe754b72	-0.23954561
126	0xbfa1c5a6	-1.2638443
127	0xbea92b7f	-0.33040997
128	0xbedfaf3e	-0.43688387
129	0x3dcf8b7c	0.101340264
130	0xbdb04579	-0.08607001
131	0x3dffb459	0.124855705
132	0xbdae937e	-0.08524226
133	0xbd28d407	-0.04121783
134	0x3dd40c70	0.10353935
135	0xbdb4a482	-0.0882044
136	0xbe0219b0	-0.12705112
137	0xbe4a743b	-0.19770901
138	0x3e02e060	0.12780905
139	0x3bbf9e86	0.005847755
140	0x3f0d3075	0.55152065
141	0xbdfee4c1	-0.12445975
142	0xbeaa1839	-0.33221605
143	0x3bd91542	0.0066248486
144	0x3efc925c	0.49330413
145	0xbdbf1c12	-0.09331526
146	0xbf5a5ecb	-0.8530089
147	0xbe430c2f	-0.19047616
148	0x3e5dbbb5	0.21653636
149	0xbddbac1f	-0.10726189
150	0x3f129f0c	0.57273936
151	0x3c19ac7c	0.009379502
152	0x3ec209e6	0.37898177
153	0x3eb55bbb	0.35421547
154	0x3de7c961	0.11317707
155	0x3eb32922	0.3499232
156	0xbea44aa1	-0.32088187
157	0x3ef90f1a	0.48644334
158	0x3f1a9fac	0.6039989
159	0x3e5b55ad	0.21419401
160	0x3ef5f720	0.48040104
161	0xbd17d5b5	-0.03706904
162	0x3eae5c42	0.34054762
163	0x3cad7f64	0.021178909
164	0xbf08a2c1	-0.5337334
165	0x3e684128	0.22681105
166	0x3ee59df0	0.4484706
167	0x3d865b41	0.06560374
168	0xbe94af02	-0.2903977
169	0x3e1aaaba	0.1510419
170	0x3fda3d68	1.704999
171	0x3e23021f	0.15918778
172	0xbecd99cc	-0.401564
173	0x3d8205c3	0.06348755
174	0xbdfe2c8a	-0.12410839
175	0x3d005f3a	0.031340815
176	0xbd024137	-0.031800475
177	0x3db7a45a	0.089668944
178	0x3e4c5b80	0.1995678
179	0xbe2db804	-0.16964728
180	0x3c3a3ae4	0.01136658
181	0x3e82a60e	0.25517315
182	0xbf7e0735	-0.9922975
183	0x3a682f3d	0.00088571367
184	0xbee4cb0a	-0.44686157
185	0x3e2e9bcc	0.1705162
186	0x3dda4d68	0.10659295
187	0x3e056f26	0.13030681
188	0x3e88818d	0.2666134
189	0xbde59472	-0.11209954
190	0xbf2ae13e	-0.6674994
191	0x3d0f0ae6	0.034922503
192	0x3ec1ac73	0.3782688
193	0x3e754d53	0.23955278
194	0xbf094766	-0.5362457
195	0xbeb213aa	-0.34780627
196	0xbd5c622d	-0.053804565
197	0x3d1ff235	0.039049346
198	0x3e88db98	0.26730037
199	0x3ec89735	0.39177862
200	0xbe9f728b	-0.31142077
201	0x3e69a979	0.22818555
202	0x3ec88122	0.3916102
203	0x3d73e9aa	0.05954901
204	0xbee690f8	-0.45032477
205	0xbb497777	-0.0030741373
206	0x3e519826	0.20468196
207	0x3e857066	0.26062316
208	0xbd96c0da	-0.07361002
209	0x3db8adcb	0.090175234
210	0xbf4d88cd	-0.80286866
211	0x3dcc2294	0.09967533
212	0xbebf1eb4	-0.37328112
213	0x3d95ab82	0.07308103
214	0xbe206920	-0.15665102
215	0xbd4d59a6	-0.050134324
216	0x3eb0318d	0.34412804
217	0x3ea19812	0.31561333
218	0x3e8b2855	0.27179208
219	0x3eda27f0	0.42608595
220	0x3e335cf5	0.17515929
221	0x3ed78504	0.4209367
222	0xbe32f7b2	-0.17477301
223	0x3e8f2591	0.27958348
224	0xbca5aed4	-0.020224966
225	0xbdd44ef6	-0.10366623
226	0x3dee6edb	0.11642238
227	0x3dc3242d	0.09528384
228	0xbf036e19	-0.5133987
229	0x3deb9d02	0.11504556
230	0xbdf32981	-0.118731506
231	0xbd3d5441	-0.04622293
232	0x3e880bc6	0.26571482
233	0xbcfe6d23	-0.0310579
234	0xbed44d3b	-0.41465172
235	0x3d57ba95	0.052668173
236	0xbd150ce1	-0.036389235
237	0xbda833cc	-0.082130045
238	0x3e135c6c	0.14390725
239	0xbc52dbd2	-0.012869792
240	0xbef4107b	-0.47668824
241	0x3db205e2	0.08692528
242	0x3e09313d	0.13397689
243	0x3e307b0d	0.1723444
244	0xbf0e92a2	-0.55692494
245	0x3e8ba003	0.27270517
246	0xbf172ec7	-0.5905575
247	0x3df5f05f	0.12008738
248	0xbde35db0	-0.11101854
249	0x3e89c785	0.26910034
250	0x3d87aba8	0.06624538
251	0x3e5b283e	0.2140207
252	0x3d928bb1	0.0715555
253	0xbe795ecc	-0.24352568
254	0xbf8ac022	-1.0839884
255	0xbe6694c4	-0.22517687

fc1.bias f4 [128]
0	0xbe298aac	-0.16556805
1	0x3eb9d405	0.3629457
2	0x3da86598	0.082225025
3	0xbe15f8d3	-0.146457
4	0xbe693db5	-0.22777446
5	0xbe62856f	-0.22121213
6	0xbeef6b2e	-0.4676146
7	0x3e4ab461	0.19795372
8	0x3e1ba7ca	0.15200725
9	0x3ed7d0fa	0.42151624
10	0xbd13fdb0	-0.036130607
11	0xbf14de44	-0.5815165
12	0xbec8eaa5	-0.3924152
13	0x3e6e641b	0.23280375
14	0x3e5a7fd4	0.21337825
15	0xbec813f8	-0.39077735
16	0xbf04dbbd	-0.51897794
17	0xbe824f90	-0.25451326
18	0xbe6e233b	-0.23255627
19	0x3ea8fee0	0.33006954
20	0xbd0175b1	-0.03160638
21	0xbe988cf4	-0.2979504
22	0x3e2f069b	0.17092364
23	0x3ebb26cf	0.36553046
24	0xbe693bde	-0.22776744
25	0x3e8c7fa0	0.2744112
26	0xbd44362a	-0.047903217
27	0x3e3b5f17	0.18297993
28	0x3e80dc72	0.25168186
29	0xbeaaf44b	-0.33389506
30	0xbc2c146c	-0.010502916
31	0xbeae8c3e	-0.3409137
32	0xbec75a3b	-0.38936028
33	0xbe68ad02	-0.22722247
34	0x3e81bae8	0.2533791
35	0xbe80a2bf	-0.25124165
36	0xbe63d255	-0.22248204
37	0x3eb64abe	0.356039
38	0x3e808ca6	0.25107306
39	0xbe8d52c9	-0.27602223
40	0xbe826792	-0.25469643
41	0xbe8ddd0d	-0.2770771
42	0xbed61a29	-0.41816834
43	0x3caf0143	0.021362906
44	0x3ee17b4c	0.4403938
45	0xbee7f1b4	-0.45301592
46	0xbdfaf047	-0.122528605
47	0xbd0854a5	-0.03328385
48	0xbe9c338a	-0.3050807
49	0xbf101704	-0.5628512
50	0x3ef15ad8	0.4713962
51	0x3ebc2c13	0.36752376
52	0xbd284ae8	-0.04108706
53	0x3e31048f	0.17286895
54	0x3e9b75ee	0.3036341
55	0xbde439b5	-0.11143819
56	0xbc19c723	-0.009385857
57	0xbf021dd3	-0.5082676
58	0xbed3087a	-0.41217405
59	0x3e13faec	0.14451188
60	0xbf16f6f2	-0.5897056
61	0xbcb087b6	-0.021549087
62	0x3b9fe511	0.0048796018
63	0xbe0c4b42	-0.13700584
64	0x3e351809	0.1768495
65	0x3edcb757	0.43108627
66	0xbeb11074	-0.34582865
67	0x3d98dfe2	0.07464577
68	0xbe60cd4f	-0.21953319
69	0xbe4f0835	-0.20217974
70	0xbde5a9cb	-0.11214026
71	0xbecaa8d6	-0.39581937
72	0xbe8b7dc6	-0.27244395
73	0x3e91cb8a	0.284756
74	0x3debf31d	0.115209796
75	0xbe0740e6	-0.1320835
76	0xbecdedac	-0.40220392
77	0xbecbde0b	-0.39817843
78	0xbe282885	-0.16421707
79	0xbe423587	-0.18965732
80	0xbe90244b	-0.2815269
81	0xbe80bc5a	-0.251437
82	0xbe8d08d2	-0.27545792
83	0xbe397507	-0.18111049
84	0x3e441390	0.19148088
85	0x3e55ca9e	0.20878074
86	0x3ce06adf	0.02739471
87	0xbec3b663	-0.38225088
88	0xbee11e45	-0.43968406
89	0x3e718fd8	0.23590028
90	0x3c303c6a	0.010756591
91	0xbe844c78	-0.2583959
92	0xbd37b308	-0.044848472
93	0x3ed2909d	0.41125956
94	0x3b73643b	0.00371386
95	0x3e8c1200	0.27357483
96	0x3ec13d81	0.37742236
97	0x3dcbbc57	0.09948032
98	0xbecea752	-0.4036203
99	0xbec2c632	-0.38041836
100	0x3e2d42aa	0.16919962
101	0xbe9185d1	-0.28422406
102	0xbeb7ddbf	-0.35911366
103	0x3d1d95a8	0.0384728
104	0x3ec53f5f	0.3852491
105	0xbe209644	-0.15682322
106	0xbe350134	-0.1767624
107	0x3ea7aea9	0.32750443
108	0x3e8a0f58	0.2696483
109	0x3e00c785	0.1257611
110	0x3edef535	0.43546453
111	0x3e3dd79c	0.1853928
112	0xbea777f2	-0.327087
113	0xbf01651c	-0.50544906
114	0xbeb60aae	-0.35555023
115	0xbd1ccc9d	-0.038281072
116	0x3e6b60cd	0.22986145
117	0xbeb02621	-0.3440409
118	0xbe9987fc	-0.2998656
119	0xbd883ef5	-0.06652633
120	0x3eb08174	0.34473765
121	0x3aaa480b	0.0012991441
122	0x3ecce965	0.40021816
123	0xbe52db54	-0.2059148
124	0x3dd92653	0.10603013
125	0xbecb198a	-0.39667922
126	0xbbbb8c77	-0.005723532
127	0xbf051cf3	-0.519973

fc2.weight f4 [128, 128]
0	0xbd0b7929	-0.034051094
1	0xbd111427	-0.03541961
2	0x3b72ba32	0.003703725
3	0xbbbae483	-0.0057035103
4	0xbc0db66d	-0.008649451
5	0xbc85e71a	-0.01634555
6	0xbda8ac31	-0.08235968
7	0x3d872a07	0.06599813
8	0x3cfe7330	0.031060785
9	0x3cb82f0a	0.022483367
10	0xbd20ffc6	-0.039306425
11	0xbd842785	-0.0645285
12	0xbd80744f	-0.06272184
13	0xbdb667d7	-0.08906525
14	0xbd37a7e9	-0.044837866
15	0x3d01a052	0.031647034
16	0xbd3d5aff	-0.04622936
17	0x3d14f429	0.03636566
18	0xbda38082	-0.07983495
19	0xbda6bad5	-0.08141104
20	0xbc8c54e0	-0.017130315
21	0x3c36f4dd	0.011166778
22	0x3d4837cb	0.048881333
23	0x3c96540b	0.018350622
24	0x3cd896f4	0.026439168
25	0xbd05962b	-0.032613914
26	0x3d7ccf93	0.061721396
27	0xbd060f60	-0.032729506
28	0x3d638687	0.055548217
29	0x3d27e69a	0.040991403
30	0xbdb83e35	-0.0899624
31	0xba9154c7	-0.0011087888
32	0xbceaadbc	-0.028647296
33	0xbcee886e	-0.02911779
34	0xbd61a476	-0.055088483
35	0xbd85a742	-0.065260425
36	0xbd73ed1f	-0.05955231
37	0x3d2e86c7	0.042609002
38	0xbd0c34ed	-0.03423016
39	0xbda2100a	-0.079132155
40	0x3cc79244	0.024361737
41	0xbd84561f	-0.06461739
42	0x3d191d34	0.037381366
43	0x3d6080dd	0.054810394
44	0xbd56020f	-0.052248057
45	0x3d03291f	0.032021638
46	0x3d8fa403	0.07013705
47	0x3d9d58cb	0.076829515
48	0xbdaa4b1b	-0.083151065
49	0xbd829546	-0.06376128
50	0x3d8cb3b2	0.06870212
51	0x3c792441	0.0152063975
52	0xbdbb0fd4	-0.09133878
53	0xbd6ebf34	-0.058287814
54	0xbd554d7d	-0.05207585
55	0x3d4ca000	0.049957275
56	0x3c0bbca5	0.008528863
57	0xba8bf2a0	-0.0010677166
58	0x3d26d666	0.04073181
59	0x3ca39ee3	0.019973224
60	0x3cfacb8d	0.030614639
61	0xbd113211	-0.035448138
62	0x3d2395d1	0.039937798
63	0xbdbb36bf	-0.09141301
64	0xbdc473bc	-0.09592387
65	0xbd98a0d7	-0.07452553
66	0xbdacf4fb	-0.08445164
67	0xbb9d2819	-0.00479604
68	0xbdb432cf	-0.087987535
69	0xbc61db59	-0.013785207
70	0xbc2c5b63	-0.010519835
71	0x3da73432	0.08164252
72	0x3d6890db	0.05677877
73	0xbd4e8642	-0.050421007
74	0x3d4f2c50	0.05057937
75	0xbcdc05a5	-0.02685816
76	0xbd9765d9	-0.07392473
77	0xbcfadda0	-0.030623257
78	0x3d9b3272	0.07577981
79	0xbce9d21d	-0.028542573
80	0x3d8de6be	0.06928776
81	0xbdbd2b4e	-0.09236775
82	0x3d9fbcfa	0.07799716
83	0xbcd9946a	-0.026560027
84	0xbd763f9b	-0.060119253
85	0x3d2e0e15	0.0424939
86	0xbdb937bb	-0.09043833
87	0xbc6576c1	-0.014005364
88	0x3dac899e	0.08424686
89	0x3c3cb589	0.011517891
90	0x3bd9ea30	0.006650232
91	0x3d770ea0	0.06031668
92	0xbc087f7d	-0.008331177
93	0xbcda3ef6	-0.02664135
94	0xbc2af01e	-0.010433225
95	0xbd734695	-0.059393484
96	0xbb8f6b4d	-0.004376805
97	0x3d92c48a	0.07166393
98	0xbdaf3535	-0.0855507
99	0xbdab044e	-0.083504304
100	0xbc0c7f46	-0.008575266
101	0x3d8bebc9	0.06832082
102	0x3daa91f4	0.083286196
103	0x3d834b73	0.06410875
104	0x3d99f12c	0.07516703
105	0xbb680789	-0.0035404882
106	0x3c42d6b5	0.01189201
107	0xbd166e3f	-0.036726233
108	0xbd45e25b	-0.048311573
109	0x3d321161	0.043473605
110	0x3d72fe25	0.059324402
111	0xbcbe765d	-0.0232498
112	0x3d9c5ceb	0.0763491
113	0x3d9bc783	0.07606413
114	0xbd2ddda7	-0.042447712
115	0xbd9139b4	-0.07091084
116	0xbc081289	-0.0083052
117	0xbccbc88c	-0.024875902
118	0x3c6c13d7	0.014409027
119	0x3c4ca32a	0.012490073
120	0x3d9c5889	0.07634074
121	0x3d2a545f	0.04158437
122	0xbc9b1c46	-0.01893438
123	0x3d270979	0.04078052
124	0xbda3af7c	-0.07992455
125	0xbd4c159f	-0.049825307
126	0xbd6f8890	-0.058479846
127	0x3cc41550	0.023935944
128	0xbd33cbcf	-0.04389554
129	0x3db29dba	0.0872149
130	0xbc627189	-0.013821014
131	0x3daf964b	0.08573588
132	0xbdc8b4e5	-0.09800128
133	0x3e608c00	0.21928406
134	0xbd989714	-0.07450691
135	0xbd10ae00	-0.03532219
136	0xbc50e547	-0.0127499765
137	0x3d9a2b69	0.07527811
138	0x3c7263a6	0.014794266
139	0xbd2c7708	-0.042105705
140	0xbe050afe	-0.12992474
141	0xbd370354	-0.04468091
142	0x3e14f411	0.14546229
143	0x3ddcb1ac	0.10776076
144	0xbe2ca987	-0.16861545
145	0x3d01f7df	0.03173053
146	0x3d57d7d8	0.05269608
147	0x3d356ad8	0.044291347
148	0xbdad4980	-0.08461285
149	0x3d8aeec9	0.06783826
150	0x3da898da	0.08232279
151	0x3d89fffd	0.06738279
152	0xbdbb4de9	-0.091457196
153	0x3c633da9	0.013869681
154	0xbe0f1442	-0.13972571
155	0x3deb23d6	0.114814445
156	0xbd72ace4	-0.059246913
157	0xbe387629	-0.18013825
158	0x3dbd6595	0.09247891
159	0x3cb7ca5f	0.022435365
160	0xbde5a00a	-0.11212166
161	0x3b97d1c5	0.004633161
162	0xbc9b76e7	-0.018977595
163	0xbd97c61a	-0.07410832
164	0xbe03aed5	-0.12859662
165	0xbcef7cc4	-0.029234298
166	0x3e06c4a3	0.13160948
167	0xbdae6b63	-0.08516576
168	0x3d94ca87	0.072651915
169	0xbd985146	-0.07437377
170	0xbf289c31	-0.6586333
171	0xbd07349a	-0.03300915
172	0x3d90cae9	0.07069952
173	0x3e7bebd7	0.24601685
174	0x3d3ea996	0.04654845
175	0xbd8b2aee	-0.067952976
176	0xbb886f9a	-0.0041636946
177	0xbc4740f7	-0.012161485
178	0x3d9477fd	0.072494484
179	0xbb788111	-0.0037918726
180	0x3d8cfaef	0.06883799
181	0x3c74fa71	0.014952288
182	0x3e06ee15	0.13176759
183	0x3da5254e	0.08063756
184	0xbb8f0e3f	-0.004365712
185	0x3d7222e6	0.059115313
186	0xbd8f57c2	-0.0699916
187	0x3d2d887b	0.042366486
188	0xbc463345	-0.012097185
189	0xbd1e3116	-0.03862103
190	0xbcd15dc3	-0.025557404
191	0x3e1fd439	0.156083
192	0xbcc64e41	-0.024207236
193	0xbb9e28ec	-0.0048266556
194	0xbc527bd0	-0.012846902
195	0xbcf9819a	-0.030457307
196	0x3d764bab	0.060130756
197	0x3ca1e5ea	0.019762952
198	0xbde546c8	-0.11195141
199	0x3db6b494	0.08921161
200	0xc00ce41a	-2.2014222
201	0x3d593853	0.05303223
202	0xbcccb7c0	-0.024989963
203	0xbd8342ac	-0.06409201
204	0x3dc9b6e6	0.09849338
205	0xbe6be287	-0.23035632
206	0xbdba7dd8	-0.09106034
207	0x3d7d8868	0.061897665
208	0xbdc33d14	-0.09533134
209	0xbe06677b	-0.13125412
210	0x3da455f8	0.0802421
211	0xbe28e474	-0.16493398
212	0x3de2ba7d	0.11070726
213	0x3c3bd219	0.011463665
214	0x3d7b7aae	0.061396293
215	0xbdcf63a5	-0.101264276
216	0xbdb9c678	-0.09071058
217	0x3d97a686	0.07404809
218	0x3ccd3e6d	0.025054181
219	0xbf04bfcb	-0.5185515
220	0xbda16694	-0.07880893
221	0x3d9fb5fe	0.07798384
222	0xbd19962d	-0.037496734
223	0x3c847926	0.01617105
224	0x3da71256	0.08157794
225	0xbcc9d437	-0.024637325
226	0x3e7e57ba	0.24838153
227	0x3d7c5397	0.061603155
228	0x3dc6b200	0.097019196
229	0x3e9c0dc6	0.30479258
230	0x3d00cad5	0.031443436
231	0x3da884f6	0.08228485
232	0xbc8da57f	-0.017290829
233	0xbbc6cb01	-0.0060666804
234	0x3c0b9a27	0.0085206395
235	0x3dfafb32	0.12254943
236	0x3d8d1627	0.06888991
237	0xbd49713f	-0.049180266
238	0x3dcaede6	0.09908657
239	0xbcf2075d	-0.029544527
240	0x3db3894d	0.087664224
241	0xbd8cc67e	-0.06873797
242	0xbe3424e8	-0.17592204
243	0x3ddbbed0	0.10729754
244	0x3c4fabf2	0.012675272
245	0x3e87e5ba	0.26542455
246	0xbde7562a	-0.11295731
247	0xbd47ec6f	-0.048809465
248	0x3d2e1eea	0.04250995
249	0x3d0ce8a5	0.034401555
250	0xbc682c8c	-0.014170777
251	0x3cee884b	0.029117724
252	0x3d7f73a9	0.06236616
253	0xbdd84b1c	-0.10561201
254	0x3d53b6c8	0.051687986
255	0x3e43cb83	0.19120602

fc2.bias f4 [128]
0	0xbd734753	-0.059394192
1	0x3d9f955e	0.077921614
2	0xbcfd6e7b	-0.03093647
3	0x3cf44a74	0.029820658
4	0x3b295fa2	0.0025844355
5	0x3dd9e9af	0.10640275
6	0x3cc26dba	0.023733962
7	0x3e109e70	0.14122939
8	0x3d3f5ab9	0.04671738
9	0x3c9a9e7d	0.018874401
10	0xbc15f98a	-0.009153733
11	0xbd92f594	-0.071757466
12	0x3d78d7d6	0.060752712
13	0xbda068eb	-0.078325115
14	0x3e1e5843	0.15463357
15	0x3d8153d7	0.06314819
16	0x3d24689e	0.040138833
17	0x3bc1caf0	0.0059140846
18	0xbdf37ee1	-0.118894346
19	0x3ccb2758	0.024799034
20	0x3d8fad58	0.070154846
21	0xbddb8be1	-0.10720039
22	0x3d87d271	0.066319354
23	0x3d482774	0.04886575
24	0xbdb67271	-0.08908547
25	0xbcdf7d33	-0.02728138
26	0x3c64a9c8	0.013956495
27	0xbd644d0c	-0.05573754
28	0xbc625122	-0.013813289
29	0xbd2c246d	-0.042026926
30	0x3c928906	0.017887603
31	0x3d9885da	0.07447405
32	0x3c27896e	0.010225637
33	0x3d8829bc	0.06648585
34	0xbda397d9	-0.07987947
35	0x3da3a63c	0.07990691
36	0xbbf9fae1	-0.007628784
37	0x3a23d358	0.0006249449
38	0x3de9f2b1	0.11423243
39	0xbd2fbf66	-0.04290714
40	0x3d8495e6	0.06473903
41	0xbd9f98e0	-0.077928305
42	0xbdb21099	-0.08694572
43	0xbc29be95	-0.01036038
44	0x3dd78c17	0.10524767
45	0xbc970ff2	-0.01844022
46	0xbca46484	-0.02006746
47	0x3d3b46fd	0.045721997
48	0xbcd5b2cb	-0.026086232
49	0xbda36df2	-0.07979955
50	0x3d93e331	0.07221068
51	0x3d82fdc4	0.06396058
52	0x3b702ede	0.0036649029
53	0x3acd5a23	0.0015667122
54	0x3d7f68f8	0.062355965
55	0xbc26cb4c	-0.010180306
56	0xbd13a5b7	-0.03604671
57	0xbda7f02f	-0.08200108
58	0xbd8d8d9b	-0.06911775
59	0x3dd1c16d	0.10241971
60	0x3bbb258e	0.005711264
61	0x3d815b7e	0.06316279
62	0x3d0963c9	0.03354243
63	0x3e0442a7	0.12916051
64	0xbc2cccc4	-0.010546867
65	0xbd48271a	-0.048865415
66	0x3d74c7bc	0.059760794
67	0xbd8f5996	-0.06999509
68	0x3dcfedf0	0.10152805
69	0x3d2d0457	0.042240467
70	0x3dcba74c	0.09944019
71	0xbd7cd9dc	-0.061731204
72	0x3ccf7d18	0.025328204
73	0xbd669a94	-0.05629976
74	0xba7220d9	-0.0009236462
75	0x3e23da2f	0.16001199
76	0xbda49e32	-0.08037986
77	0x3d9b9371	0.075964816
78	0x3ae613b9	0.0017553485
79	0x3d678a6f	0.056528505
80	0x3db65ed6	0.08904807
81	0xbdb8005c	-0.089844435
82	0xbdcb6c37	-0.0993275
83	0xbd93adca	-0.07210882
84	0x3d6f28b1	0.058388416
85	0xbdcee8be	-0.10102986
86	0xb8cf69cc	-9.8902354e-05
87	0x3d49d210	0.049272597
88	0x3d2bf8e6	0.041985415
89	0x3d2276d7	0.039664116
90	0xbc68686a	-0.0141850505
91	0xbdc84d6d	-0.09780393
92	0x3d939a67	0.07207184
93	0xbdaf98ea	-0.08574088
94	0x3d40e174	0.04709001
95	0x3e2b3f89	0.16723455
96	0x3d14f04b	0.036361974
97	0x3e24cc30	0.16093516
98	0xbd80622b	-0.06268724
99	0xbd7de7e1	-0.061988715
100	0x3c2a98d0	0.01041241
101	0xbbb85584	-0.0056254286
102	0xbd6d1c3c	-0.057888255
103	0xbd910dfd	-0.07082746
104	0x3d7a6006	0.06112673
105	0xbd675106	-0.056473754
106	0x3be6c00e	0.0070419377
107	0xbda35e23	-0.079769395
108	0x3dec5c54	0.11541048
109	0xbc1b9522	-0.009496005
110	0xbdaef5df	-0.0854299
111	0x3cb84bca	0.022497077
112	0x3da36e85	0.07980064
113	0xbdd9bd6e	-0.10631834
114	0x3d7c1008	0.061538726
115	0x3ce783bd	0.02826106
116	0xbd8a235b	-0.06745025
117	0x3dceb5db	0.1009328
118	0xbd34d4ea	-0.044148363
119	0x3e04fb35	0.12986453
120	0x3d022c04	0.031780258
121	0xbdf88841	-0.12135363
122	0x3c86dc9d	0.016462618
123	0x3d6f128a	0.05836729
124	0xbd6ea099	-0.058258627
125	0xbc1ca120	-0.0095599
126	0xbcb075cb	-0.021540543
127	0xbdd01914	-0.10161033

fc3.weight f4 [2, 128]
0	0xbcb722d7	-0.02235548
1	0x3db215cd	0.086955644
2	0x3d93e814	0.07222
3	0x3bfa2c52	0.007634678
4	0xbd5cb693	-0.053885054
5	0x3e4e1394	0.20124656
6	0xbc9c1e2a	-0.019057352
7	0x3d8bd2d3	0.06827321
8	0x3d5761f8	0.052583665
9	0xbd046e77	-0.03233191
10	0x3cef94bc	0.029245727
11	0xbd3a2bfb	-0.0454521
12	0x3e68e1e1	0.22742416
13	0xbd905a5d	-0.070484854
14	0x3d2b8bfe	0.041881554
15	0xbd5c3146	-0.05375793
16	0xbc8136e5	-0.015773246
17	0xbd11f380	-0.03563261
18	0x3d3b4a2c	0.045725033
19	0x3d65574f	0.055991467
20	0x3e185186	0.14874849
21	0xbd3a11ba	-0.04542706
22	0x3df858d4	0.121263176
23	0xbd45c95e	-0.04828774
24	0x3c12d3a9	0.0089615965
25	0x3d9ce77b	0.07661339
26	0x3e8d4f0a	0.27599365
27	0x3d4fd9c3	0.050744783
28	0xbc8f8f79	-0.017524468
29	0x3bcf3d8e	0.0063244766
30	0x3ac9b720	0.0015389659
31	0x3e38cf8d	0.18047924
32	0xbd82a81a	-0.06379719
33	0xbd889a89	-0.066701
34	0xbd807349	-0.06271989
35	0xbd5dcace	-0.054148488
36	0xbd8c34a0	-0.06845975
37	0x3dc8dfea	0.09808333
38	0x3daf865d	0.0857055
39	0xbc832c4b	-0.016012331
40	0xbd263297	-0.04057559
41	0xbd83035c	-0.06397125
42	0x3dacbb12	0.08434118
43	0xbcc21241	-0.023690345
44	0x3dd06bf5	0.10176841
45	0xbd3047ac	-0.0430371
46	0xbd8a5574	-0.0675458
47	0x3dee76ee	0.11643778
48	0x3cbd5858	0.023113415
49	0xbd232632	-0.039831348
50	0x3d97f79c	0.074202746
51	0xbd610290	-0.054934084
52	0xbb84205f	-0.0040321792
53	0xbdd64dd4	-0.10464063
54	0x3e53fc93	0.20701818
55	0x3cbc7b3f	0.023007987
56	0x3bcf5e28	0.006328363
57	0xbd5b92e5	-0.053606886
58	0xbc8f26ec	-0.017474614
59	0x3e3d08f1	0.18460442
60	0x39688bf0	0.00022177375
61	0xbd554e75	-0.052076776
62	0x3e717bf6	0.23582444
63	0x3de4b72b	0.11167749
64	0x3d77c3ff	0.06048965
65	0xbd411a89	-0.047144447
66	0x3c73efd3	0.0148887215
67	0x3c48e126	0.012260711
68	0x3dca9ece	0.09893571
69	0xbd0cabb5	-0.03434344
70	0x3df46d66	0.119349286
71	0x3d6ca697	0.05777606
72	0xbc4389b7	-0.011934689
73	0x3d177532	0.036977
74	0xbb139476	-0.002251891
75	0x3db92061	0.09039379
76	0x3cda54fc	0.026651852
77	0x3d9aa4cf	0.07550966
78	0xbb5e7f63	-0.003395044
79	0x3dd46edd	0.10372708
80	0x3e94b0b2	0.29041058
81	0xbcfedcc8	-0.031111136
82	0xbc9cf8e4	-0.019161649
83	0xbceee37b	-0.029161206
84	0x3d4176f7	0.047232594
85	0xbcb78bac	-0.022405468
86	0xbd3db887	-0.046318557
87	0xbcb5ed74	-0.022207953
88	0x3c236fb3	0.009975362
89	0xbcd808a2	-0.026371304
90	0x3e734979	0.23758496
91	0x3caa4c04	0.0207882
92	0x3d19eb28	0.037577778
93	0xbd922647	-0.07136207
94	0x3c02dbaa	0.007986942
95	0x3e020c3d	0.12699981
96	0xba96730c	-0.0011478378
97	0x3d8eca60	0.06972194
98	0xbd8eca9d	-0.06972239
99	0x3d889f41	0.06671
100	0xbcc5075d	-0.024051363
101	0xbc53ed60	-0.012935013
102	0xbd0bc4da	-0.03412328
103	0xbd2932df	-0.04130828
104	0xbd80a1a1	-0.06280828
105	0xbcbbf327	-0.022943093
106	0xbf104c27	-0.563662
107	0xbd0190be	-0.031632178
108	0x3e5a261f	0.21303605
109	0xbc867031	-0.016410919
110	0x3be038ce	0.006842709
111	0x3d1b5863	0.03792609
112	0x3e99be89	0.3002818
113	0x3c08e02a	0.008354226
114	0xbcc4c732	-0.024020765
115	0x3df0bf94	0.11755291
116	0x3c6b6ab8	0.014368705
117	0x3d900c32	0.07033576
118	0x3e594abe	0.21219918
119	0x3d87180b	0.06596383
120	0x3ca2fd7a	0.019896258
121	0x3c8ebaf5	0.017423132
122	0x3d9c6bfe	0.076377854
123	0x3d346bbd	0.04404806
124	0xbd0c6764	-0.03427829
125	0x3ed38e6d	0.413196
126	0xbcea2f28	-0.028586939
127	0x3d4636da	0.048392154
128	0xbd1e76a4	-0.038687363
129	0x3d7d38b6	0.061821662
130	0x3d9c17f5	0.07621757
131	0xbb15dbd9	-0.0022866635
132	0xbcaddb26	-0.021222662
133	0x3ebd23ca	0.36941367
134	0xbb3796f2	-0.0028013554
135	0x3dc87517	0.09787958
136	0x3e65be12	0.22435787
137	0x3d23d099	0.039993856
138	0xbd04d22c	-0.032426998
139	0x3be9788e	0.007124967
140	0x3e34f529	0.17671646
141	0x3d14ded1	0.036345307
142	0x3db6c9f6	0.0892524
143	0xbbef9b62	-0.0073122242
144	0x3bd97bae	0.006637058
145	0x3cedb9eb	0.029019317
146	0xbd8ff98c	-0.07030019
147	0x3d86c1ca	0.06579931
148	0x3e6bb87b	0.23019592
149	0x37ccf34b	2.4431987e-05
150	0x3dd7c1f0	0.105350375
151	0xbd9a1ac6	-0.07524638
152	0x3ce51992	0.027966294
153	0x3cd40a5c	0.025883846
154	0x3e843c6e	0.25827354
155	0x3dcfa942	0.10139705
156	0xbd821615	-0.06351868
157	0xbc234ac9	-0.009966561
158	0xbc45245e	-0.012032596
159	0x3c913b5a	0.017728496
160	0xbc11d802	-0.008901598
161	0x3da8687b	0.08223053
162	0x3dbfe5bf	0.093699925
163	0x3cc655ef	0.024210898
164	0xbc2af8c4	-0.010435287
165	0x3dcccfe1	0.10000587
166	0x3d8ac7b2	0.0677637
167	0x3b9d4ade	0.0048001846
168	0xbcb2d1ab	-0.021828493
169	0x3d9eafa6	0.07748346
170	0x3ce780eb	0.028259715
171	0xbd9145e8	-0.07093412
172	0x3d1019bb	0.03518079
173	0xbbddef0d	-0.006772882
174	0xbd4b8d41	-0.049695257
175	0x3e26b9b4	0.16281778
176	0xbd8a430b	-0.06751069
177	0x3ced6c2e	0.028982248
178	0x3ea598d3	0.32343158
179	0xbd757bd2	-0.059932537
180	0xbc9905c6	-0.01867951
181	0x3af8de68	0.0018987181
182	0x3e78239b	0.24232332
183	0xbc118729	-0.008882322
184	0x3d08cd05	0.033398647
185	0xbd88a32b	-0.06671747
186	0x3ce0c6fd	0.027438635
187	0x3e47e3c3	0.19520478
188	0x3c578cf9	0.013156169
189	0x3d4ad52e	0.04951971
190	0x3e76fc78	0.24119747
191	0x3d847914	0.06468406
192	0x3d9760fa	0.07391544
193	0x3d52a83d	0.051429976
194	0x3db50498	0.08838767
195	0xbb0f8bc8	-0.0021903384
196	0x3d20f4af	0.03929585
197	0xb8dee9b7	-0.00010629318
198	0x3e0d4f45	0.1379977
199	0xbb3ffcb2	-0.0029294905
200	0xbc1b84ba	-0.009492094
201	0x3d0395bf	0.03212523
202	0xbc41e05d	-0.0118332775
203	0x3d8c68b9	0.06855912
204	0xbd40e38f	-0.047092017
205	0x3d08dfa8	0.03341642
206	0xbd876b7e	-0.066122994
207	0x3e2a91c7	0.16657172
208	0x3e890fd6	0.26769894
209	0x3c9200e6	0.017822694
210	0xbc6e1bdd	-0.01453301
211	0xbcbf670d	-0.023364568
212	0x3db7cb60	0.089743376
213	0x3cb2db1d	0.021832997
214	0x3d666bcd	0.05625515
215	0xbcbd4115	-0.023102323
216	0xbd0b19af	-0.03396004
217	0x3d06e672	0.032934614
218	0x3e863471	0.26211885
219	0xbc240144	-0.010010067
220	0xbd875466	-0.066078946
221	0x3cf7b4f7	0.030237658
222	0xba33c5da	-0.000685779
223	0x3dc6d0dd	0.09707806
224	0x3c5972c9	0.013271996
225	0x3df6f4a4	0.1205838
226	0x3d280c39	0.04102728
227	0x3d417704	0.047232643
228	0x3d47253c	0.048619494
229	0xbd765c2a	-0.06014649
230	0xbd05cc5f	-0.032665607
231	0x3d67effd	0.056625355
232	0x3d1aba56	0.03777536
233	0xbd0b1e37	-0.033964362
234	0xbebca2c1	-0.3684292
235	0xbda55858	-0.08073491
236	0x3d7a3cb7	0.06109306
237	0x3d253810	0.04033667
238	0xbd84b311	-0.06479467
239	0xbded65aa	-0.115916565
240	0x3e8a0187	0.2695429
241	0xba8326c5	-0.0010006061
242	0x3d30e9a9	0.043191586
243	0x3d9d613d	0.07684562
244	0xbbcb90ca	-0.0062123286
245	0x3dc191de	0.0945165
246	0x3ea6884f	0.3252587
247	0x3dc1beed	0.09460244
248	0x3d626e81	0.055281166
249	0xbca302cd	-0.019898796
250	0x3d965e56	0.07342212
251	0xbd5c4d6d	-0.053784776
252	0x3d43ac3b	0.047771674
253	0xbcfc1cb7	-0.030775411
254	0x3d90a673	0.07062998
255	0xbd166931	-0.036721412

fc3.bias f4 [2]
0	0x3d860c63	0.06545331
1	0x3e1c9e46	0.15294752
