models/dqn_cartpole.pt (torch, 72657 bytes, 6 tensors)

fc1.weight f4 [128, 4]
-0.2868022 -0.37613136 -0.6624965 -0.06362496 0.41908726 -0.3482038 -0.76128656 -0.2845716
0.229193 0.06664247 0.68361807 0.26278743 -0.29741344 0.16548194 0.359714 -0.24573794
-0.33535922 -0.1412748 0.5004035 -0.26224262 0.12395509 0.17527197 -0.21022259 -0.25870657
0.5279274 -0.3464704 0.49976072 0.08212947 -0.0060344725 -0.10905056 -0.25276282 -0.2924902
-0.43888468 0.34707144 -0.19574817 0.22720696 0.22331774 0.011667103 -0.19813372 0.024462486
0.15051241 -0.0890219 0.25595638 0.16145809 0.37863964 -0.17674129 0.14865342 0.09159984
0.34221342 0.22332574 -0.10038346 -0.019267319 -0.08045318 0.16569507 0.76741695 0.1376901
0.22624266 -0.19512178 -0.50708795 -0.25863442 0.33563423 0.011049538 0.2906475 -0.15772967
0.11756013 -0.051676255 0.06858953 -0.2576192 0.09696104 0.42498368 -0.4648636 0.26715732
0.13380791 -0.2171178 -0.42713872 -0.30385754 0.23765123 -0.028668942 -0.015221135 0.19253303
-0.104768224 0.170689 -0.39395872 -0.28398025 -0.00045450742 -0.32297397 -0.20597233 -0.10873457
-0.4122108 -0.17511481 -0.18405175 -0.25507537 -0.0060145166 0.009776695 -0.69714206 -0.008644479
-0.22427727 0.21594726 0.64378226 0.054386236 0.54778886 0.22464839 0.38609037 0.261846
0.30503285 0.064387 0.06428081 -0.059694286 0.32070267 -0.49787602 0.17282055 -0.45713875
0.27832583 0.13004865 0.83518684 -0.043774195 -0.22310893 0.23088184 -0.5082301 0.041637927
-0.043335497 0.15293564 0.1728053 0.0823088 0.28210735 -0.37191147 0.27590913 0.044948224
-0.599666 0.36633646 1.4085553 0.3140821 0.33160284 -0.072059795 -0.013543214 0.23876932
-0.5857586 0.0050986856 0.09925459 -0.2701015 0.166034 0.33859405 0.53510976 0.10241168
0.18159957 -0.12831774 0.5934935 -0.1561321 0.46842507 -0.03689451 -0.3564598 0.094944015
-0.35465276 0.005181043 0.4208989 -0.16157751 -0.59009665 0.36460605 0.8349419 0.48971352
-0.2263386 0.24490844 -0.2022968 0.22899692 0.2454243 0.23651308 0.37739998 0.15744388
0.36869305 0.2757702 0.15346779 0.22246917 -0.23339537 -0.098847084 0.08133694 -0.11133799
-0.30019966 -0.16356257 0.40150476 -0.2145638 -0.051996864 0.0800538 0.108461514 0.042071972
-0.5827529 -0.37205833 -0.046228055 -0.11285499 0.5415439 -0.11882956 0.44478002 0.14797688
-0.17956914 0.3370031 0.03207717 0.20717624 -0.5183656 0.19560483 0.17345485 -0.009244087
0.025389547 0.10734846 -0.12905075 0.09035973 -0.109316275 0.2639607 0.07974548 0.22385564
0.3151129 -0.011058974 0.6408233 -0.074364014 0.70624846 -0.42917746 -0.7251659 -0.3454265
-0.464939 0.1572707 0.50575125 -0.055447854 -0.18270154 -0.25875553 -0.14813359 -0.11380999
0.26022354 0.19101155 0.21825533 0.17266706 0.076787144 -0.09288829 0.17506887 0.13810062
-0.47027844 0.43006706 -0.24680328 0.2044825 0.43081596 -0.24382389 0.5399946 -0.05425098
-0.69393325 0.06342081 0.887606 -0.19434498 0.32967496 -0.19376682 0.2578457 -0.10360123
0.43467456 0.2985653 -0.14866908 0.3024078 -0.3628764 -0.3248722 -0.12371917 -0.15194657
00000000: bdd7 92be 4a94 c0be 5f99 29bf ce4d 82bd
00000010: 9b92 d63e c547 b2be ade3 42bf 5eb3 91be
00000020: 92b1 6a3e d97b 883d 9801 2f3f 138c 863e
00000030: 9346 98be 1974 293e 6f2c b83e baa2 7bbe
00000040: 34b4 abbe 57aa 10be 721a 003f aa44 86be
00000050: 2bdc fd3d 7f7a 333e 9744 57be 3075 84be
00000060: 4026 073f 9164 b1be a3e0 ff3e 7f33 a83d
00000070: d3bc c5bb e655 dfbd 216a 81be 47c1 95be
00000080: 7eb5 e0be 59b3 b13e 3572 48be f1a8 683e
00000090: 68ad 643e 6027 3f3c 91e3 4abe 8d65 c83c
000000a0: ed1f 1a3e 1d51 b6bd b70c 833e 4555 253e
000000b0: 0edd c13e abfb 34be 9a38 183e b298 bb3d
000000c0: 9936 af3e 81af 643e d895 cdbd 7fd6 9dbc
000000d0: a3c4 a4bd f8ab 293e 7075 443f a2fe 0c3e
000000e0: 28ac 673e 01ce 47be 84d0 01bf bb6b 84be
000000f0: 40d8 ab3e 1f09 353c c0cf 943e e383 21be
00000100: 5ec3 f03d 7baa 53bd ab78 8c3d aae6 83be
00000110: 8293 c63d 7697 d93e 9a02 eebe d8c8 883e
00000120: f104 093e 2154 5ebe edb1 dabe 3793 9bbe
00000130: d85a 733e 21db eabc 1162 79bc 6127 453e
00000140: b990 d6bd 19c9 2e3e f5b4 c9be dc65 91be
00000150: f44a eeb9 d85c a5be 69ea 52be 3bb0 debd
00000160: 4b0d d3be 4c51 33be 1078 3cbe 3d99 82be
00000170: 6c15 c5bb 6e2e 203c e777 32bf 93a1 0dbc
00000180: f1a8 65be 4721 5d3e eace 243f 1ac4 5e3d
00000190: e43b 0c3f 3a0a 663e a3ad c53e ae10 863e
000001a0: 442d 9c3e 55dd 833d a8a5 833d ff81 74bd
000001b0: 2433 a43e 9be9 febe dff7 303e 170e eabe
000001c0: b980 8e3e 792b 053e cece 553f 924c 33bd
000001d0: ab76 64be 4a6c 6c3e 5e1b 02bf 888c 2a3d
000001e0: 9080 31bd 299b 1c3e dff3 303e 8491 a83d
000001f0: 6070 903e 2e6b bebe f643 8d3e a11b 383d
00000200: b683 19bf 7490 bb3e 8a4b b43f 5ecf a03e
00000210: d9c7 a93e 1694 93bd 5be4 5dbc f27f 743e
00000220: 47f4 15bf e012 a73b fe45 cb3d be4a 8abe
00000230: d104 2a3e 335c ad3e f4fc 083f 37bd d13d
00000240: 3df5 393e ba65 03be 31ef 173f 18e1 1fbe
00000250: 69d5 ef3e b31e 17bd e681 b6be 0272 c23d
00000260: 0c95 b5be bdc5 a93b 1080 d73e 9374 25be
00000270: 9310 17bf a5ad ba3e c1be 553f bbbb fa3e
00000280: 4ec5 67be 47c9 7a3e e426 4fbe 2b7e 6a3e
00000290: 8250 7b3e 7c30 723e 923a c13e f838 213e
000002a0: 56c5 bc3e c031 8d3e a926 1d3e f5ce 633e
000002b0: 32ff 6ebe 5770 cabd fb93 a63d 2c05 e4bd
000002c0: c5b3 99be f27c 27be 0892 cd3e 9db6 5bbe
000002d0: aafa 54bd 3ff3 a33d 1221 de3d a953 2c3d
000002e0: 4b2f 15bf 6e7e bebe a159 3dbd 8420 e7bd
000002f0: 9fa2 0a3f ea5c f3bd 35ba e33e 4087 173e
00000300: f9e0 37be ac8b ac3e 5a63 033d 0226 543e
00000310: 9cb3 04bf a24c 483e 269e 313e 8374 17bc
00000320: bdfd cf3c 82d9 db3d e125 04be 860e b93d
00000330: 36e1 dfbd db25 873e 9951 a33d 6a3a 653e
00000340: 7a56 a13e b330 35bc ff0c 243f 294c 98bd
00000350: b3cc 343f 26bd dbbe 79a4 39bf bedb b0be
00000360: 7c0c eebe 920b 213e ea78 013f 4a1d 63bd
00000370: 1d16 3bbe 9b7b 84be 55b0 17be 3615 e9bd
00000380: 053c 853e 8898 433e 537e 5f3e a2cf 303e
00000390: 9442 9d3d 373c bebd 4145 333e 406a 0d3e
000003a0: 56c8 f0be c031 dc3e 00ba 7cbe dc63 513e
000003b0: e993 dc3e f8ac 79be 163d 0a3f 4736 5ebd
000003c0: 9ca5 31bf c5e2 813d 263a 633f 5f02 47be
000003d0: 28cb a83e cf6a 46be 5a04 843e e22c d4bd
000003e0: aa8d de3e 8ddd 983e b53c 18be 32d5 9a3e
000003f0: efca b9be a655 a6be 7a60 fdbd e297 1bbe

fc1.bias f4 [128]
-0.4901026 -0.28266335 -0.16167885 0.292577 0.042392097 -0.44843286 -0.3151773 0.36723533
-0.021819778 -0.038475752 -0.5878347 -0.4215877 0.42043096 -0.19809687 -0.36165684 -0.44744945
0.32840663 0.30211562 -0.42123327 -0.5101088 -0.48149705 -0.3035659 0.33310637 -0.13105366
-0.013715785 -0.4373974 -0.46180955 0.2934118 -0.21873865 -0.46623987 -0.0915939 0.35811874
-0.4382267 -0.6884209 -0.41896364 -0.5334755 0.120490424 -0.10929318 0.4302692 -0.38081565
-0.19582497 -0.25273052 -0.3555616 -0.3161987 0.25697744 0.031868227 0.3045299 -0.4113176
-0.19772261 -0.34202316 -0.08233589 -0.13451345 0.04246491 -0.26164842 0.03003083 0.2159004
-0.03700139 0.37475833 -0.41181403 -0.316491 -0.25591066 0.31680557 -0.1874566 -0.47668618
-0.13123837 -0.4343019 -0.1424312 -0.12224382 -0.04516371 -0.09015332 -0.009183432 0.31443667
0.4086059 -0.48224154 0.47417834 0.2626813 0.15258734 -0.45751867 -0.46795353 0.3551778
-0.03891133 -0.60163313 -0.36822438 -0.027942171 0.17405006 -0.4538116 -0.096679196 -0.40429348
-0.08252278 -0.14147751 -0.41584992 -0.24241437 -0.07052778 -0.22401145 0.20616733 -0.5072393
0.36494738 0.14684293 -0.1704256 0.30323485 -0.23488404 -0.20593098 0.1969156 -0.38724202
-0.13970606 0.3984068 -0.15227556 -0.18395437 -0.045464236 -0.17785123 0.15326862 0.40899915
0.3905392 0.4266757 -0.038500383 -0.017008167 -0.3016349 0.4105463 0.38785124 -0.013679126
0.08343267 -0.578981 -0.042467862 0.36783946 -0.135367 -0.25195995 -0.5009146 0.35484383
00000000: baee fabe 40b9 90be 248f 25be a7cc 953e
00000010: 56a3 2d3d fe98 e5be eb5e a1be 4506 bc3e
00000020: 64bf b2bc c098 1dbd 567c 16bf 58da d7be
00000030: ba42 d73e e8d9 4abe 162b b9be 1818 e5be
00000040: ea24 a83e e6ae 9a3e e3ab d7be 7e96 02bf
00000050: c886 f6be fd6c 9bbe eb8c aa3e ee32 06be
00000060: 2cb8 60bc 8df2 dfbe 4d72 ecbe 123a 963e
00000070: 06fd 5fbe feb6 eebe 9595 bbbd 575b b73e
00000080: 405f e0be 5a3c 30bf 6782 d6be da91 08bf
00000090: afc3 f63d 1ad5 dfbd 3f4c dc3e 45fa c2be
000000a0: 5786 48be e565 81be 2c0c b6be cce4 a1be
000000b0: 8c92 833e 4288 023d 58eb 9b3e 3898 d2be
000000c0: cc77 4abe a91d afbe b89f a8bd e5bd 09be
000000d0: afef 2d3d c8f6 85be 3703 f63c ff14 5d3e
000000e0: c58e 17bd 53e0 bf3e 4ad9 d2be 1c0b a2be
000000f0: b906 83be 5734 a23e 9ff4 3fbe 3610 f4be
00000100: 5a63 06be d25c debe 7cd9 11be f85a fabd
00000110: 95fd 38bd 4ea2 b8bd 1b76 16bc d8fd a03e
00000120: cb34 d13e 5de8 f6be 81c7 f23e 2a7e 863e
00000130: db3f 1c3e e33f eabe 9b97 efbe ddd9 b53e
00000140: 7d61 1fbd a104 1abf e887 bcbe fbe6 e4bc
00000150: 2e3a 323e fe59 e8be beff c5bd 8eff cebe
00000160: b401 a9bd 7bdf 10be 48ea d4be 793b 78be
00000170: de70 90bd 4263 65be 871d 533e 6fda 01bf
00000180: 62da ba3e fe5d 163e 0c84 2ebe 9941 9b3e
00000190: 7185 70be 92df 52be 3ea4 493e 9644 c6be
000001a0: 1b0f 0fbe fafb cb3e 20ee 1bbe 895e 3cbe
000001b0: b538 3abd a21e 36be 73f2 1c3e 5668 d13e
000001c0: c1f4 c73e 3d75 da3e 94b2 1dbd b654 8bbc
000001d0: e46f 9abe 2033 d23e 7094 c63e 6a1e 60bc
000001e0: bfde aa3d 1938 14bf c8f2 2dbd 7455 bc3e
000001f0: a69d 0abe e500 81be f03b 00bf 17ae b53e

fc2.weight f4 [128, 128]
0.18595102 0.0405068 -0.13128816 -0.057777308 -0.02924566 -0.10740258 0.04122055 0.060211755
0.068915226 0.027818961 0.13900393 -0.051730637 0.0093309255 0.4284958 0.109198205 -0.044202138
-0.011779957 -0.055811256 -0.004807337 -0.014591917 -0.11922771 0.09473773 0.03632413 -0.058316745
0.014264161 -0.033946473 0.031220466 0.07124003 0.05328289 -0.28805128 0.03414604 0.064119905
0.41271168 0.06637545 0.15222009 0.122376904 0.06987444 -0.068543255 0.007607814 0.36221153
-0.04042552 0.09037029 -0.11749961 0.050450817 -0.06523917 -0.03987864 -0.08120478 0.09382358
-0.015748445 -0.106657036 -0.057482254 0.10421117 -0.10546129 0.11200314 0.009017473 -0.012730148
0.018229315 -0.08521561 -0.036236744 -0.0006133683 0.081892505 -0.093223706 0.097080246 0.39642334
-0.043884587 0.05275725 0.047007572 0.053489167 0.045512125 0.11422139 -0.026805252 0.009477614
-0.04179026 0.110699855 -0.02755286 0.05566864 -0.030080037 -0.07922009 -0.032923337 -0.04620544
0.097399905 -0.06506132 0.08762657 -0.06102203 -0.023607416 -0.05896003 -0.05919059 -0.0008828716
-0.030544115 0.05897526 -0.2530993 0.0075958855 0.07867684 -0.017695889 0.065802865 -0.027310176
0.060180303 -0.027368994 0.031436235 0.066717416 -0.024593612 -0.11629583 -0.009211908 -0.0048326575
-0.076317236 -0.1030683 0.14748327 0.008497232 -0.028004842 0.039570402 -0.005208226 0.00073675666
-0.088980936 -0.012758562 -0.058424182 -0.063923426 -0.06884006 -0.090080455 0.030541778 -0.045260422
0.08088021 -0.06133753 0.14364049 -0.070154406 -0.006874126 0.04836466 0.28268164 -0.08165746
-0.06330109 0.016460488 -0.08733862 0.0066363676 0.06275446 0.00045631008 -0.03233879 -0.08360836
0.001252261 0.06756015 -0.039286204 -0.03869201 0.032451544 0.016834946 -0.062302884 0.001797589
-0.0031109548 -0.047245853 -0.0016113335 -0.022879848 0.06674231 -0.06429291 -0.031162685 -0.018514669
-0.098390445 0.033325743 -0.07617031 -0.10017799 -0.07130087 -0.02453366 -0.067073375 0.056061026
-0.045006953 0.0060179904 0.05563434 0.077023216 -0.09418163 -0.051812015 0.011218115 0.07974837
0.023169797 0.0031854482 0.03512763 0.030923227 -0.060546145 -0.04406876 -0.071033895 -0.06688041
0.025968399 -0.059735533 -0.06436136 -0.033761796 -0.07921081 0.0052809664 0.034397345 -0.083712205
-0.06117812 -0.021124981 0.028395059 -0.003283408 -0.049116246 -0.06367966 -0.029198166 -0.053023823
0.020497993 -0.0053048306 0.08500185 -0.047928866 -0.05607297 0.059498187 -0.005105419 -0.040524535
-0.08605526 -0.06091589 -0.02590213 0.05242426 0.064765945 -0.041563343 0.06476839 -0.072390385
-0.09105477 0.049739275 -0.018266581 -0.10391233 -0.01753213 0.05495792 -0.07491698 0.014009075
0.082372315 -0.029101545 -0.004325215 -0.014769246 -0.09217206 -0.081539154 -0.018100329 0.069230504
0.013431537 0.0048204516 0.04414186 0.00947171 -0.010164989 -0.020260442 0.06448986 0.04005018
-0.074263796 -0.019292744 -0.034432545 -0.018856497 0.07864003 0.024868326 0.023961477 -0.07763854
-0.09029718 0.036665015 -0.06253732 -0.07711708 -0.032312777 0.048690144 -0.019382926 -0.090134315
0.0446625 -0.012567152 -0.013027433 0.002771425 0.012218111 0.047257133 0.052456588 0.009672166
00000000: f269 3e3e 75ea 253d 6770 06be e6a7 6cbd
00000010: 9894 efbc e2f5 dbbd e1d6 283d 9aa0 763d
00000020: 6d23 8d3d 97e4 e33c 0c57 0e3e 81e3 53bd
00000030: bde0 183c cd63 db3e 4fa3 df3d 4d0d 35bd
00000040: b900 41bc 589a 64bd de86 9dbb f012 6fbc
00000050: a82d f4bd db05 c23d 9cc8 143d 8add 6ebd
00000060: 3ab4 693c 750b 0bbd 10c2 ff3c 4be6 913d
00000070: 293f 5a3d 757b 93be b8dc 0b3d 4c51 833d
00000080: f24e d33e daef 873d 95df 1b3e bea0 fa3d
00000090: 551a 8f3d 6860 8cbd f84a f93b ca73 b93e
000000a0: 3b95 25bd 0f14 b93d a3a3 f0bd 84a5 4e3d
000000b0: 1d9c 85bd c957 23bd b14e a6bd 9426 c03d
000000c0: e202 81bc 016f dabd 8372 6bbd aa6c d53d
000000d0: 17fc d7bd e761 e53d 06be 133c 1c92 50bc
000000e0: a555 953c 8685 aebd fb6c 14bd 73ca 20ba
000000f0: 42b7 a73d 12ec bebd 02d2 c63d 00f8 ca3e
00000100: 53c0 33bd fc17 583d 038b 403d 7517 5b3d
00000110: ec6a 3a3d e7ec e93d b096 dbbc ff47 1b3c
00000120: 432c 2bbd 9bb6 e23d 89b6 e1bc cd04 643d
00000130: 696a f6bc 243e a2bd 9fda 06bd ea41 3dbd
00000140: 9a79 c73d df3e 85bd 8f75 b33d 3cf2 79bd
00000150: 5764 c1bc 1380 71bd d571 72bd 8370 67ba
00000160: a737 fabc 0b90 713d 3b96 81be e8e6 f83b
00000170: 5321 a13d f8f6 90bc a7c3 863d 97b9 dfbc
00000180: 9f7f 763d f134 e0bc 48c3 003d 24a3 883d
00000190: 8b78 c9bc 822c eebd 8bed 16bc 455b 9ebb
000001a0: 364c 9cbd 7915 d3bd db05 173e f937 0b3c
000001b0: 696a e5bc 9314 223d c4a9 aabb e722 413a
000001c0: a33b b6bd 4a09 51bc 324e 6fbd 49ea 82bd
000001d0: 04fc 8cbd 1a7c b8bd c032 fa3c fe62 39bd
000001e0: 86a4 a53d 103d 7bbd 7e16 133e 1dad 8fbd
000001f0: 5940 e1bb 061a 463d a6bb 903e 073c a7bd
00000200: 00a4 81bd 25d8 863c 97de b2bd e375 d93b
00000210: 6985 803d e73c ef39 ae75 04bd dc3a abbd
00000220: e822 a43a fa5c 8a3d 92ea 20bd 837b 1ebd
00000230: e9eb 043d 71e9 893c 4f31 7fbd 149d eb3a
00000240: 29e1 4bbb de84 41bd 6133 d3ba 856e bbbc
00000250: 31b0 883d 00ac 83bd e348 ffbc 13ac 97bc
00000260: ee80 c9bd 9380 083d 2eff 9bbd 1e2a cdbd
00000270: 3106 92bd d0fa c8bc c45d 89bd 3fa0 653d
00000280: 3659 38bd 9032 c53b d5e0 633d 59be 9d3d
00000290: 4ce2 c0bd d638 54bd 2fcc 373c 1d53 a33d
000002a0: 96ce bd3c f4c2 503b fde1 0f3d b552 fd3c
000002b0: 3cff 77bd 7281 34bd 387a 91bd 99f8 88bd
000002c0: aebb d43c 3fad 74bd e4cf 83bd cf49 0abd
000002d0: 4739 a2bd f50b ad3b 3be4 0c3d 4e71 abbd
000002e0: e995 7abd 4c0e adbc c19c e83c 722e 57bb
000002f0: 1e2e 49bd 7b6a 82bd fe30 efbc 822f 59bd
00000300: 68eb a73c 25d4 adbb 7315 ae3d 0f51 44bd
00000310: c5ac 65bd 5fb4 733d 5c4b a7bb 0efd 25bd
00000320: bd3d b0bd f182 79bd b430 d4bc d2ba 563d
00000330: 02a4 843d 533e 2abd 4aa5 843d 6941 94bd
00000340: ec7a babd 69bb 4b3d cca3 95bc fdcf d4bd
00000350: 8b9f 8fbc 8e1b 613d 136e 99bd 5286 653c
00000360: d1b2 a83d 5d66 eebc 88ba 8dbb b5fa 71bc
00000370: b4c4 bcbd 00fe a6bd 2447 94bc b9c8 8d3d
00000380: f30f 5c3c e1f4 9d3b 18ce 343d 3b2f 1b3c
00000390: 0e8b 26bc 3af9 a5bc 4213 843d a80b 243d
000003a0: 9e17 98bd d10b 9ebc 2409 0dbd f178 9abc
000003b0: 060e a13d a9b8 cb3c dc4a c43c f400 9fbd
000003c0: baed b8bd 0e2e 163d 9113 80bd 8fef 9dbd
000003d0: 675a 04bd 516f 473d f1c8 9ebc 5798 b8bd
000003e0: 07f0 363d 75e6 4dbc 0471 55bc cca0 353b
000003f0: 792e 483c b290 413d b8dc 563d 0178 1e3c

fc2.bias f4 [128]
-0.031059 0.025664944 -0.077290714 -0.020593023 -0.09548582 -0.037683465 0.035437662 0.14472632
-0.069817156 -0.0037394604 0.026682975 -0.09126259 -0.055851627 0.042220514 -0.072435305 -0.02543301
0.08331754 0.0054011294 0.12129861 -0.09260644 0.03825424 -0.009548613 -0.14123999 -0.0927869
0.04134529 -0.06796812 -0.0889671 -0.015958497 -0.028648792 0.17052992 -0.010767473 -0.09693215
0.075183384 -0.00062574947 -0.0495741 0.1102481 -0.013305744 0.07840554 0.05061192 -0.009111832
0.04968873 -0.0026284766 0.020111186 -0.09329636 -0.07756682 -0.07453745 -0.02360655 0.11236926
0.029136902 0.025425177 -0.06974591 0.03202265 -0.052878402 0.023796396 -0.022067085 -0.081809804
-0.080891326 0.105636515 0.0899015 -0.08518513 -0.0715918 -0.060246095 -0.045962967 0.07718015
-0.08627565 -0.0012762386 -0.0047549615 -0.08073879 -0.110285334 -0.056949142 -0.046330415 -0.08905761
0.10241129 0.013826909 -0.018436119 -0.075628415 0.035817157 -0.073565006 0.026273346 0.04709783
0.026869481 -0.03284587 0.112248555 0.0019793059 0.033266373 0.13019781 0.013155756 -0.048205286
-0.08322685 0.038329396 -0.10452806 -0.031936724 -0.08604046 0.009866352 -0.048015527 -0.05733864
-0.0768264 -0.08002684 0.18359816 0.09570868 0.18538019 -0.019594552 -0.048930198 -0.09276687
-0.016332552 0.11730752 -0.017537642 -0.09305069 0.009299381 -0.034688976 0.059642598 -0.046106275
-0.083314426 -0.04381512 -0.04084819 0.012807933 0.06525647 -0.07740869 0.06922899 -0.028340122
0.042042088 -0.06727449 -0.091919295 -0.03722426 -0.024724405 -0.021911826 0.0083167255 0.04829774
00000000: 726f febc 4a3f d23c 984a 9ebd b3b2 a8bc
00000010: 128e c3bd fa59 1abd 1527 113d 2333 143e
00000020: 4cfc 8ebd bc11 75bb 4196 da3c e1e7 babd
00000030: adc4 64bd 6bef 2c3d f658 94bd e358 d0bc
00000040: 63a2 aa3d f5fb b03b 686b f83d 72a8 bdbd
00000050: 7ab0 1c3d c971 1cbc 37a1 10be 0f07 bebd
00000060: ae59 293d df32 8bbd 6234 b6bd 65bb 82bc
00000070: dfb0 eabc 659f 2e3e 0e6a 30bc 5d84 c6bd
00000080: bff9 993d 5609 24ba 360e 4bbd c1c9 e13d
00000090: 5600 5abc 1593 a03d 724e 4f3d cb49 15bc
000000a0: 6986 4b3d 8542 2cbb 37c0 a43c 2912 bfbd
000000b0: 5adb 9ebd 17a7 98bd 8662 c1bc db21 e63d
000000c0: 83b0 ee3c 7648 d03c f2d6 8ebd 2f2a 033d
000000d0: 0697 58bd a9f0 c23c 08c6 b4bc e68b a7bd
000000e0: 5aaa a5bd f557 d83d 471e b83d 8b75 aebd
000000f0: b99e 92bd 9cc4 76bd aa43 3cbd a010 9e3d
00000100: 4ab1 b0bd 7647 a7ba 82cf 9bbb 615a a5bd
00000110: 47dd e1bd 8143 69bd f6c4 3dbd d663 b6bd
00000120: 03bd d13d 428a 623c 5807 97bc 12e3 9abd
00000130: 03b5 123d 40a9 96bd 333b d73c a7e9 403d
00000140: 631d dc3c 6489 06bd 92e2 e53d 3eb7 013b
00000150: 5242 083d 9352 053e 3d8b 573c e872 45bd
00000160: d772 aabd 49ff 1c3d cf12 d6bd 15d0 02bd
00000170: fb35 b0bd 7ba6 213c eeab 44bd ecdb 6abd
00000180: 2957 9dbd 1de5 a3bd 2801 3c3e ea02 c43d
00000190: 4ed4 3d3e c184 a0bc 086b 48bd 8ffc bdbd
000001a0: d8cb 85bc ed3e f03d 1aab 8fbc 5c91 bebd
000001b0: 6e5c 183c 0716 0ebd cc4b 743d efd9 3cbd
000001c0: c1a0 aabd 7c77 33bd 6f50 27bd 5dd8 513c
000001d0: 2fa5 853d 7288 9ebd eec7 8d3d 8b29 e8bc
000001e0: 5334 2c3d 35c7 89bd 2f40 bcbd 7778 18bd
000001f0: d68a cabc 6e80 b3bc e042 083c dad3 453d

fc3.weight f4 [2, 128]
0.03810942 0.0033448413 -0.072264194 -0.008846531 0.032364946 -0.010682445 -0.04051187 0.10690595
0.023708964 0.066553056 -0.05359929 0.052944336 0.1242382 -0.075392336 -0.012099911 0.0040364694
0.084753245 0.032317862 0.08897518 0.071537 -0.08004526 0.029272487 0.13612811 -0.03466307
0.039538685 -0.003909946 0.023902483 0.119210996 0.0069680754 0.091150254 0.050237123 -0.07487774
-0.0060751275 -0.0051617553 0.03009805 0.120552 -0.04530696 0.077999726 -0.00421489 0.008868877
0.07037968 0.13698173 -0.029993903 -0.047194652 0.03753021 0.009332958 -0.036219526 0.15122391
0.109182164 0.0041025328 -0.06771493 -0.009168031 0.219276 0.018305484 0.0012620531 -0.031506743
0.04424316 0.10226299 0.093276955 -0.005512934 -0.06539513 0.024711818 -0.029236332 0.1199561
0.0316055 -0.07305442 -0.012955529 0.019615278 -0.062942974 0.05714659 -0.008539857 -0.054989148
0.0963355 0.05080577 0.036921605 0.0051050023 0.022369219 -0.03927488 0.005848781 0.043568585
-0.006854579 -0.003217572 0.08906701 0.004783208 -0.006732951 0.054384507 -0.009313412 -0.010584245
0.0002570815 0.059651874 0.03588879 0.013695408 -0.041365325 0.002578714 0.022998754 -0.07380793
-0.022245687 0.0070289564 0.09559072 0.13209024 0.093431234 0.028973207 0.06956335 0.020878952
0.020656995 0.072133735 0.020003766 -0.04164642 -0.056583576 0.058308326 -0.030266935 0.0007121795
0.059400283 -0.057565354 -0.0383318 0.006362092 -0.04218968 -0.76599085 0.1520206 0.14089127
0.046106264 -0.031200763 -0.039202698 -0.05148625 -0.015931876 -0.060850605 -0.04917228 -0.00853873
0.003051205 -0.017298399 0.08285343 0.003670595 -0.030845279 0.016064124 0.0051300363 0.070650466
-0.018340087 0.045393653 0.078755505 -0.051197156 0.023626165 -0.06381529 0.019475983 0.13131572
0.087012015 0.03426085 0.10364727 0.06782329 -0.028714722 -0.032480396 -0.37208927 0.020363403
-0.053223364 0.0301159 -0.037246082 0.16781367 -0.08207195 0.117024325 -0.07465649 0.01422118
0.010408291 0.009855897 -0.02971699 0.18946354 -0.07575771 0.09610831 -0.057199843 0.007964242
-0.070472285 0.048122138 -0.0047537386 0.0077010053 0.059125368 -0.020197056 -0.042058676 0.07010589
0.07493147 0.0068423566 -0.016518967 -0.025629539 0.26461917 -0.060937386 -0.08722467 -0.07289551
-0.0159031 0.032316357 0.041528802 -0.061000712 0.027194386 -0.021879114 0.021231115 0.07395008
0.08187823 -0.06942924 -0.00308891 -0.064179406 -0.04976695 -0.0632536 0.009412035 -0.023518343
0.15245228 0.011207947 -0.029733248 -0.00045414016 -0.023932219 0.054413605 -0.013430308 -0.04640639
-0.003911541 -0.03053364 0.118642785 -0.015263488 0.004173634 0.09209607 -0.060526688 -0.042275384
0.0034260545 0.024049027 -0.045081135 -0.25019908 0.07550835 -0.04481537 -0.016885243 0.008289559
0.083355874 -0.0072326907 0.12932608 0.18178847 0.1268638 -0.038887 -0.007211272 -0.030405516
-0.040089656 0.06026472 -0.011179793 -0.06944084 0.0451239 -0.00073888735 -0.039880857 0.0020819686
-0.06375766 -0.06357503 0.022566646 -0.042410936 -0.053637054 -0.58583593 0.12084714 0.11001598
-0.062134486 0.0082702935 -0.023408284 -0.0255875 0.08562528 -0.026247783 0.07947472 0.019973408
00000000: a018 1c3d 2035 5b3b 40ff 93bd 0af1 10bc
00000010: 1b91 043d 6c05 2fbc c6ef 25bd 82f1 da3d
00000020: 4d39 c23c f84c 883d ee8a 5bbd 29dc 583d
00000030: 9970 fe3d 4c67 9abd b53e 46bc 5c44 843b
00000040: 1c93 ad3d bc5f 043d 9f38 b63d fe81 923d
00000050: c5ee a3bd dbcc ef3c 2b65 0b3e ddfa 0dbd
00000060: 51f3 213d 011f 80bb 24cf c33c e524 f43d
00000070: 7454 e43b fcac ba3d 71c5 4d3d 8059 99bd
00000080: dd11 c7bb f123 a9bb 3090 f63c f8e3 f63d
00000090: ca93 39bd 52be 9f3d 0f1d 8abb c44e 113c
000000a0: 3923 903d f044 0c3e c6b5 f5bc 2e4f 41bd
000000b0: 47b9 193d 43e9 183c ed5a 14bd 71da 1a3e
000000c0: e69a df3d 8a6e 863b 20ae 8abd 8235 16bc
000000d0: e389 603e 62f5 953c 7a6b a53a 370d 01bd
000000e0: 5138 353d 426f d13d fd07 bf3d d8a5 b4bb
000000f0: e2ed 85bd 7070 ca3c 0881 efbc 8bab f53d
00000100: c574 013d 8e9d 95bd 6d43 54bc 38b0 a03c
00000110: 3fe8 80bd 8b12 6a3d c2ea 0bbc 4d3c 61bd
00000120: 8c4b c53d b619 503d 1c3b 173d dd47 a73b
00000130: a73f b73c b2de 20bd 22a7 bf3b f974 323d
00000140: 609c e0bb e7dd 52bb c468 b63d 75bc 9c3b
00000150: 16a0 dcbb 4ac2 5e3d 4897 18bc 8b69 2dbc
00000160: e5c8 8639 8655 743d 2000 133d b462 603c
00000170: b06e 29bd a4ff 283b e267 bc3c 9d28 97bd
00000180: 963c b6bc 2953 e63b 11c5 c33d aa42 073e
00000190: e058 bf3d 3859 ed3c 3b77 8e3d 560a ab3c
000001a0: dc38 a93c daba 933d f0de a33c 7095 2abd
000001b0: 2ec4 67bd b6d4 6e3d 5df2 f7bc 8fb1 3a3a
000001c0: b64d 733d a6c9 6bbd ce01 1dbd 1979 d03b
000001d0: 16cf 2cbd fa17 44bf 4aab 1b3e cd45 103e
000001e0: ecd9 3c3d be98 ffbc 0293 20bd 3fe3 52bd
000001f0: 9183 82bc 7c3e 79bd df68 49bd 08e6 0bbc
00000200: baf6 473b 5fb5 8dbc 0faf a93d 5d8e 703b
00000210: 3daf fcbc e998 833c dd19 a83b 31b1 903d
00000220: f33d 96bc b2ee 393d 914a a13d 1cb4 51bd
00000230: a98b c13c 97b1 82bd 198c 9f3c a177 063e
00000240: 5b33 b23d 1b55 0c3d 0545 d43d f0e6 8a3d
00000250: 233b ebbc 2a0a 05bd 7c82 bebe 27d1 a63c
00000260: be00 5abd 9fb5 f63c 598f 18bd 59d7 2b3e
00000270: 5715 a8bd 73aa ef3d 80e5 98bd f4ff 683c
00000280: 8987 2a3c a17a 213c 0c71 f3bc bb02 423e
00000290: dc26 9bbd 6fd4 c43d 624a 6abd 747c 023c
000002a0: c653 90bd b81b 453d 40c5 9bbb b758 fc3b
000002b0: 712d 723d 4c74 a5bc b845 2cbd ad93 8f3d
000002c0: ac75 993d d935 e03b c952 87bc 0af5 d1bc
000002d0: 2a7c 873e 7b99 79bd d9a2 b2bd 3e4a 95bd
000002e0: 3847 82bc 285e 043d 1b1a 2a3d e2db 79bd
000002f0: c3c6 de3c d43b b3bc e0ec ad3c 2473 973d
00000300: c6af a73d eb30 8ebd 4f6f 4abb 7e70 83bd
00000310: 6ed8 4bbd 1a8b 81bd f034 1a3c 8aa9 c0bc
00000320: 731c 1c3e 89a1 373c 2493 f3bc a919 eeb9
00000330: 800d c4bc cde0 5e3d cb0a 5cbc a014 3ebd
00000340: 622c 80bb af21 fabc fdfa f23d b513 7abc
00000350: fbc2 883b dd9c bc3d d5ea 77bd f428 2dbd
00000360: a887 603b 7702 c53c ffa6 38bd 181a 80be
00000370: 1fa4 9a3d 5290 37bd ec52 8abc eed0 073c
00000380: 7cb6 aa3d 3500 edbb 0e6e 043e c226 3a3e
00000390: 96e8 013e fa47 1fbd 894c ecbb fd14 f9bc
000003a0: 0d35 24bd 24d8 763d 732b 37bc 0037 8ebd
000003b0: d7d3 383d e4b1 41ba 1c5a 23bd a371 083b
000003c0: 6093 82bd a033 82bd b0dd b83c 17b7 2dbd
000003d0: 87b2 5bbd 58f9 15bf b57e f73d 0f50 e13d
000003e0: bb80 7ebd 2080 073c bbc2 bfbc e09c d1bc
000003f0: 4f5c af3d 9705 d7bc a4c3 a23d 469f a33c

fc3.bias f4 [2]
0.1487571 0.15707333
00000000: c853 183e d5d7 203e
