models/dqn_cartpole.pt (torch, 72657 bytes, 6 tensors)

fc1.weight f4 [128, 4]
000000 25 ec 10 bd 4f 1f 19 3e 4f 34 a7 bf 69 46 82 3d
       -0.035381455 0.1495335 -1.3062838 0.06361086
000010 da 90 24 be 9e 25 01 be 62 e8 10 3f 20 64 07 be
       -0.16070881 -0.12612006 0.5660459 -0.13221788
000020 32 1a f1 3d 22 e8 33 be 2f d0 08 3f 84 1c 4f be
       0.117725745 -0.1756902 0.5344266 -0.20225722
000030 6e f1 5a 3e dd 3f 98 be ed 97 a7 3c b0 6e 37 be
       0.2138116 -0.29736224 0.020458186 -0.17913318
000040 8f 53 db bc 7d 85 64 3e 01 27 b1 bf 9a 17 54 bd
       -0.026773242 0.22316547 -1.3840028 -0.05178032
000050 a4 1e 74 3d 95 3b 53 3d 3a 6c 0d bf ef 7a 7a be
       0.059599534 0.051570494 -0.55243266 -0.24460958
000060 b6 7e 4c 3f a7 5b c3 be b5 8c c7 bd bc 37 8f be
       0.79880846 -0.38155863 -0.097436346 -0.2797221
000070 dd 30 a1 3d 78 d0 93 bd 94 c3 71 3f 47 34 2b 3d
       0.07870648 -0.07217497 0.94439054 0.041797902
000080 63 bd 2a be f3 20 6e 3e c1 d7 66 3f 20 58 06 3e
       -0.16673808 0.23254757 0.90172964 0.13119555
000090 5e b5 83 bd c9 be 9f 3d 70 a1 b3 3e 9a f7 bf 3d
       -0.064310774 0.07800061 0.35084105 0.09373398
0000a0 e9 e2 4b be e9 03 3f 3e 25 e1 18 3f b9 75 e8 3d
       -0.19910778 0.18653835 0.59718543 0.11350579
0000b0 ed c5 7c bd ab e7 7c 3d f3 18 66 bf 7e 63 a5 3d
       -0.061712194 0.061744373 -0.8988182 0.08075617
0000c0 54 17 bc be 96 47 82 3d d4 36 c8 be cb 69 8e bc
       -0.36736548 0.0636131 -0.3910433 -0.01738443
0000d0 61 17 31 be 31 fd e2 3d b7 59 84 bd ff 79 ad 3d
       -0.17294075 0.11083449 -0.06462424 0.084705345
0000e0 bc 42 22 3f 75 9e b5 3d 8c ac 02 bf 73 ea 17 3a
       0.6338308 0.08868114 -0.51044536 0.00057951285
0000f0 f4 39 3e 3d 1e 28 52 bd 22 f5 8d 3e 94 21 29 bd
       0.046441987 -0.05130779 0.27726084 -0.04129179
000100 a3 cc 9d be 05 69 a0 3e a3 a1 62 be b6 45 53 3e
       -0.30820188 0.31330124 -0.22131972 0.20632061
000110 dd e0 02 3e 85 ec 9d bd dd 8b c9 be fa 54 a0 3c
       0.12781091 -0.07711128 -0.3936452 0.01957177
000120 69 76 cd 3d b2 de 62 be bb e3 6d bf 47 6b 90 be
       0.100323506 -0.22155264 -0.92925614 -0.28206846
000130 be d3 33 3e 18 07 2e bd c8 2b ce bf f9 e0 32 be
       0.17561242 -0.042487234 -1.6107111 -0.17468633
000140 5b f3 f3 3d 91 61 62 39 38 bf 35 3f 63 26 c5 3d
       0.11911651 0.00021589386 0.709949 0.09626462
000150 05 45 8f 3b 3d b8 56 bb f1 03 59 3e b5 4f 58 bc
       0.0043722414 -0.0032763623 0.2119291 -0.013202597
000160 30 0e db bb 35 34 3a 3d fb f6 d7 3e de a3 58 3e
       -0.006685041 0.045459945 0.4218062 0.2115626
000170 44 6b c6 3e 78 8c a5 be 9d d1 ea bd cc 66 ea be
       0.38753712 -0.32333732 -0.11465762 -0.45781553
000180 78 26 19 bd c9 76 8a 3e 41 3b 20 bf d1 ab 91 bd
       -0.037390202 0.2704375 -0.62590414 -0.071128495
000190 89 97 4e 3e 16 2c c1 bd 81 f3 5d 3e 73 ab 0d 3e
       0.20174994 -0.09432237 0.2167492 0.13834934
0001a0 2e 2b bd bb e2 79 4b b9 b2 35 8d bf c3 7e d9 bb
       -0.0057729697 -0.00019404994 -1.1032012 -0.0066374256
0001b0 ff 2b b8 bd 88 cd 1e 3e 6f 21 bc be 7d f7 c2 3d
       -0.089927666 0.15508091 -0.36744258 0.09519861
0001c0 f2 7d 16 3e 08 f3 27 bc bf 9c bf be 2a 53 0c 3e
       0.14696482 -0.010250814 -0.37424275 0.137036
0001d0 50 5d 2e be 4d 3a e8 3d 72 b6 17 3d bc 0b b9 3c
       -0.17027783 0.11339245 0.037039228 0.022588603
0001e0 ca e7 aa bd 58 1a 62 3e e9 9e 87 3e 4d 92 9c bd
       -0.083449915 0.22080362 0.26488426 -0.07645092
0001f0 6b 1e bd bd 5e bb ca be a9 f7 f4 be 39 94 94 be
       -0.092343174 -0.39596075 -0.478452 -0.29019335
000200 2f 10 ea bd dd de 4a 3e 26 38 bc 3f 53 5c 60 3e
       -0.11428868 0.19811578 1.4704635 0.21910219
000210 68 02 87 3d 5c 9b b8 bc f7 e6 23 3e ae 4b 57 3d
       0.06592256 -0.022535019 0.16006075 0.05256241
000220 c8 c5 64 3e b1 00 bf be 58 71 81 be 6b ef 6d be
       0.22341073 -0.37305215 -0.25281787 -0.23235862
000230 51 60 09 3c d8 89 48 3c 56 d1 82 3e 95 1b 7d bd
       0.00838478 0.012239896 0.25550336 -0.061793882
000240 1a c0 81 3e 32 33 71 be d5 08 bc 3e 33 03 1d be
       0.25341874 -0.23554686 0.36725488 -0.15333252
000250 5f 3c cb 3a 50 5f 6b bb e5 1d 39 3f 94 1d 39 be
       0.0015505663 -0.0035914965 0.7231124 -0.1807769
000260 32 f9 06 3e d3 be 81 bd 53 89 14 bf c6 3e 1d bd
       0.13180998 -0.06335225 -0.5802204 -0.038389944
000270 09 cd 2f be b8 d1 65 3d 4f 86 da be 74 5e a5 bc
       -0.17168058 0.056108207 -0.42680594 -0.02018664
000280 a9 9a 88 be 0e 19 c7 3e 95 73 2d bf 72 83 5c 3d
       -0.26680496 0.38886303 -0.6775449 0.053836294
000290 ed 54 cf bd e8 01 10 3e e4 c8 e1 be f6 14 45 3e
       -0.1012362 0.14063227 -0.4409858 0.19246277
0002a0 78 ba 8b 3d 04 ba c0 bd 71 97 b9 3e b8 5a 71 bd
       0.068226755 -0.0941048 0.36248353 -0.058924407
0002b0 8d f4 83 bd f5 f9 a4 3d 9e 03 30 3e 36 f3 45 3d
       -0.06443129 0.08055488 0.1718888 0.048327647
0002c0 6f b8 30 be f1 9a d2 3d 3c 08 63 3e 3c 6c 7e bd
       -0.17257856 0.10283459 0.2217111 -0.06211494
0002d0 2d 1f 7d 3e 23 9c 8d be 38 aa 65 3e 60 b6 84 be
       0.24718924 -0.27658185 0.22428215 -0.2592039
0002e0 04 fb 68 bd f8 e6 96 3d 1a 09 5d bf eb 65 d5 3d
       -0.056880012 0.073682725 -0.8634201 0.1041983
0002f0 df 4e 86 3d fd da 06 be 1e 86 22 be 8c 37 70 3d
       0.06558012 -0.13169475 -0.15871474 0.058646724
000300 71 77 a5 bc da 96 34 3d a3 4c f9 bf 34 8e d6 bd
       -0.020198556 0.044089176 -1.9476513 -0.10476342
000310 47 24 a5 be 6a ee 3f bd f1 38 37 bd 97 4c 7d bd
       -0.3225424 -0.04685823 -0.044732038 -0.06184062
000320 89 43 de 3c 57 c9 bb bc 51 53 68 be 57 fe d1 3b
       0.027131813 -0.022923155 -0.22688033 0.0064084935
000330 25 b6 b4 bd 90 49 2a 3e c3 5b 79 3e 24 e8 d0 3d
       -0.08823804 0.16629624 0.2435141 0.10200527
000340 e1 30 d6 be e2 35 99 bc f2 e8 cf 3c 37 2a 36 ba
       -0.41834167 -0.018702451 0.025379632 -0.00069490395
000350 65 03 a2 be ef 06 08 3f a0 b7 ae bf 79 86 6c 3e
       -0.31643215 0.5313558 -1.3649788 0.23098172
000360 fc 31 88 be 65 f3 87 3e a6 cc 5e 3e bb 00 c3 bd
       -0.26600635 0.26552883 0.21757755 -0.09521624
000370 f9 a3 28 bb 76 20 af 3c 0c da 20 3f ce da 70 bc
       -0.00257325 0.021377783 0.62832713 -0.014700605
000380 9b 00 1a 3d f3 a3 4c bd 15 db da 3e 4c 41 8d 3b
       0.037598234 -0.04996104 0.4274527 0.0043107625
000390 0a bd 0b 3c 5f ec 60 bd 21 ba c0 3f 78 ba f4 3b
       0.008528957 -0.05491292 1.5056802 0.007468518
0003a0 0c 5b f9 3d ae b6 0b be 04 6d 65 3c 34 bd 07 be
       0.12175569 -0.13643906 0.014003042 -0.13255769
0003b0 1a fe 73 bd a8 a1 0c 3d ab eb b7 3f 27 03 17 3e
       -0.059568502 0.034333855 1.4368795 0.14747296
0003c0 2d dd 3b 3e dd 03 90 be 5a e6 a6 bd 1d 33 9a be
       0.1834609 -0.28127947 -0.08149405 -0.3011712
0003d0 e4 e2 01 3e f6 2e 17 3e 58 fc b2 bd e6 7e 77 3d
       0.12684208 0.14764008 -0.08739537 0.060423754
0003e0 7a f0 38 bd 82 cd 9a 3d 06 ee a7 be 4e 6e 9c 3d
       -0.04515121 0.07558729 -0.32798785 0.076382264
0003f0 81 97 60 3e 51 91 e6 bd 51 12 44 3e 67 6a d1 be
       0.21932794 -0.11258186 0.19147612 -0.4090149

fc1.bias f4 [128]
000000 de e5 99 be 0e b5 2d bf 1a 32 99 be f0 ce ea be
       -0.30058187 -0.6785439 -0.29921037 -0.45861006
000010 4c 13 03 bf 1c 00 56 be 5a d4 9f be a9 74 23 be
       -0.5120132 -0.20898479 -0.312167 -0.15962471
000020 3b c9 b6 be 82 59 36 be ee 27 ab be 3e a6 8b be
       -0.35700402 -0.17807582 -0.334289 -0.2727527
000030 f5 f6 d5 be 98 30 cb be 94 00 55 bf e2 ef 1f be
       -0.41789976 -0.39685512 -0.8320401 -0.15618852
000040 86 5c 17 bf b0 99 89 be 49 40 90 be 14 23 d1 be
       -0.59125555 -0.26875067 -0.28174046 -0.40847075
000050 dd ac f6 be 78 40 42 bd 9d 71 e2 3e de 29 0e bf
       -0.4817876 -0.047424763 0.44227305 -0.55532634
000060 58 ca 15 bf 00 b8 db be 3a 39 74 be 6b 72 47 be
       -0.5851188 -0.42913818 -0.23849955 -0.1947724
000070 3b af 0b bf 5d a2 da be 5a 84 3e be c9 20 1b bf
       -0.54564255 -0.42701998 -0.18605176 -0.605969
000080 06 4e bf be 0b e2 83 be 3b 06 11 be 5e cf 78 be
       -0.37364215 -0.25758395 -0.14162533 -0.24297854
000090 60 03 dd be f9 46 b8 be c6 73 86 be e7 9b 5b 3e
       -0.43166637 -0.35991648 -0.26260203 0.21446191
0000a0 67 92 53 bf bc 76 ea bc 9c a3 30 be fb b5 ee bd
       -0.8264527 -0.02862107 -0.17249912 -0.11655804
0000b0 59 e8 2d bf 9d 69 de 3e 91 1e 63 be 9e 16 08 bf
       -0.6793266 0.43439952 -0.22179629 -0.5315951
0000c0 0a 0c c8 be 34 3c 6a bf 26 ce c5 bd 66 70 be be
       -0.39071685 -0.9149811 -0.0965846 -0.37195128
0000d0 b8 14 7b bf 83 9f e8 be 48 ba 0c bf f9 49 2a be
       -0.9807849 -0.45434198 -0.5497174 -0.16629781
0000e0 a7 5b d6 bd d3 7d 9b be 87 a4 90 be 1e 0a a3 be
       -0.104667 -0.30369434 -0.28250524 -0.31843656
0000f0 fe b9 04 bf e2 9d 36 bf 72 fc 21 be e2 5e 2a bf
       -0.518463 -0.7133466 -0.15818956 -0.6655103
000100 88 52 78 be 73 d9 81 be 4a 44 0e be 44 2b ce be
       -0.24250233 -0.25361213 -0.13893238 -0.40267384
000110 78 0c 06 bf 36 aa c6 be 5f b2 5c be b0 6e 10 bf
       -0.52362776 -0.38801736 -0.21552418 -0.56418896
000120 e8 d9 82 be 38 10 fc be 4d 94 2b bf 03 b3 34 3e
       -0.25556874 -0.49231124 -0.67023164 0.17646413
000130 e6 73 42 bd 81 6e c5 be 1a 46 89 be a6 03 89 bf
       -0.04747381 -0.3856087 -0.26811296 -1.0704238
000140 7e 88 50 be 35 20 0d bf 56 1b 98 be b7 9f 1a be
       -0.20364568 -0.5512727 -0.29708356 -0.15099989
000150 90 21 f1 be 6f 58 c6 be 50 25 95 be 41 0f 31 bf
       -0.4709592 -0.38739344 -0.2913003 -0.691639
000160 0a 51 0d be 0c cc dd 3e 23 0e 19 be e0 0b 28 be
       -0.13800445 0.43319738 -0.14946799 -0.1641078
000170 8a 25 33 bf 22 f8 a4 be bf 9d 55 be a6 a6 41 be
       -0.69979155 -0.3222056 -0.20860957 -0.18911228
000180 7a 46 79 be 01 79 52 be 4b d9 91 be 1b 41 2b bf
       -0.24343291 -0.20553972 -0.28486094 -0.6689622
000190 e5 a2 c1 be 67 ed a4 be ab f3 a8 be 8c 96 e2 bd
       -0.3781959 -0.32212374 -0.32998404 -0.11063871
0001a0 d4 bf 2b bf be b1 a7 be c6 bb 9a be f1 6d 64 be
       -0.6708958 -0.32752794 -0.30221385 -0.22307564
0001b0 f6 5d 88 3e 47 ab 26 bf f6 bd 85 be 60 2a cb be
       0.26634187 -0.651051 -0.2612149 -0.39680767
0001c0 f2 4c c6 be c1 87 9c be b2 72 f5 be b8 25 0a bf
       -0.3873058 -0.30572322 -0.47939068 -0.53963804
0001d0 6a e0 2e bf b5 ae a5 be 9e 98 71 be ee 10 f0 bd
       -0.6831118 -0.32359853 -0.23593375 -0.11721979
0001e0 41 b0 e7 be 57 86 a5 be 29 0f 14 bf 6c 97 2c be
       -0.4525166 -0.32329056 -0.5783563 -0.16854638
0001f0 4e 2e 31 bf 14 1d 08 bf ef 14 ca be f1 2c 95 be
       -0.6921128 -0.5316937 -0.39469096 -0.2913585

fc2.weight f4 [128, 128]
000000 11 7b 81 3e 92 7e e3 be f6 d8 d7 bd 85 54 d3 bb
       0.25289205 -0.44432503 -0.10539429 -0.0064492845
000010 b5 02 8a be df 1a 44 bd ae c6 09 3e 4b 18 a8 bd
       -0.2695519 -0.04787719 0.13454697 -0.082077585
000020 bc 36 0d bf 61 20 8d 3d 98 af 83 3c be 4a 68 bf
       -0.55161643 0.068909414 0.01607494 -0.9073905
000030 56 3b f3 ba ef 85 a0 bd ea 02 91 bd 8f 59 32 bd
       -0.0018557112 -0.07838046 -0.07080634 -0.04354244
000040 78 ff de bc b4 96 2c 3d 8d 28 9e 3d d2 38 f0 be
       -0.027221426 0.04213591 0.07722578 -0.4691835
000050 e8 74 d9 3c 11 96 0c 3c e3 08 9a 3d 97 1e e8 3e
       0.026545003 0.0085807005 0.07521226 0.45335838
000060 69 a2 64 3e fa 23 ff bd 45 9c 88 be c3 9f d8 bc
       0.2232758 -0.12458034 -0.26681724 -0.026443368
000070 6b 1b 8d bd 2f 29 cc 3d f3 61 6c 3c 02 e9 15 be
       -0.06889995 0.09968793 0.01442765 -0.14639667
000080 0b 61 8c bf ef a6 12 3d d1 e9 a6 3d 9c 27 60 3d
       -1.0967115 0.03580373 0.08150066 0.054725274
000090 3d 87 9b 3d 01 c9 f0 3d 3a bc 8f 3c fd bf 7e 3d
       0.07594154 0.117570885 0.017545808 0.062194813
0000a0 37 73 27 bd c0 f6 17 3b a5 bf 6c 3c 6b eb 2f bd
       -0.04088136 0.0023187846 0.0144499885 -0.04294912
0000b0 8b 22 1e be 17 99 bc 3d 35 db 46 be 62 95 46 be
       -0.15442865 0.09208887 -0.19419558 -0.19392923
0000c0 4b 39 0b c1 53 7d 6f bf d3 5a 0b 3d 24 83 e1 bb
       -8.701488 -0.93550605 0.034022164 -0.0068820883
0000d0 d5 bc 93 c0 a6 f4 85 bd 23 13 10 be 36 b6 99 bd
       -4.616801 -0.065408036 -0.140698 -0.07505457
0000e0 7a a1 62 bd 31 95 80 bf 7b 8f 21 3e 7f 58 6f bf
       -0.055329777 -1.004553 0.1577739 -0.9349441
0000f0 89 e9 ca bb 76 3d 5c 3d 19 93 43 3c 5c 8c 99 3e
       -0.0061923903 0.05376955 0.011936926 0.29989898
000100 f3 f3 0a bd c2 b6 bc bd 6c fe 98 bd 97 fa 1e be
       -0.033924054 -0.09214546 -0.07470402 -0.1552528
000110 33 70 e9 bc 84 d0 19 bd 8b 6c b3 bc 1f bb 84 3e
       -0.028495884 -0.03755237 -0.021902343 0.25924012
000120 22 34 c6 bf a7 51 1d 3d 6a 68 4a be 7b 3f 46 3d
       -1.548466 0.038407948 -0.19766393 0.048400383
000130 5c 64 41 bd 01 ef 29 3e 28 45 a5 3d 30 cd 56 bf
       -0.04721485 0.16595079 0.08069831 -0.8390684
000140 2f 12 1e be 35 34 de bd 95 91 b4 bd 9c ea 79 3c
       -0.15436624 -0.108498015 -0.0881683 0.015253689
000150 5b 23 af bf 3b be 8e be 61 26 d8 bd 79 26 b6 bd
       -1.3682665 -0.2787951 -0.10554195 -0.08894057
000160 e7 3a 70 bc ac b4 ed bc d5 4f 43 bd 7c 06 b1 bc
       -0.014662481 -0.029016815 -0.047683556 -0.021609537
000170 18 24 26 be bd 03 b3 bd 3f ac 93 3d 0e ad 7e be
       -0.16224706 -0.087409474 0.07210588 -0.24870703
000180 41 d8 41 bf 44 c1 72 3d 93 09 21 bf 6c 79 12 bd
       -0.757206 0.059266344 -0.62905234 -0.03576033
000190 96 8f f0 bd d4 b7 ff 3c bd 0e 51 be 74 81 aa 3c
       -0.11746137 0.031215586 -0.20415778 0.020813681
0001a0 1d 82 f3 bf 90 9f 94 bd 06 66 12 3e 43 91 b7 bc
       -1.9024082 -0.07256997 0.14296731 -0.022408133
0001b0 76 17 db 3d b4 e6 e5 be 62 05 c0 bd 3e 09 08 c0
       0.10697834 -0.44902575 -0.09376027 -2.125564
0001c0 2a d3 5c be 8d da 2d 3e 33 74 eb bf 5d e3 99 bf
       -0.21564928 0.16977902 -1.8394836 -1.2022511
0001d0 af d1 f6 be 23 5d 06 3d 44 d0 97 3d 2a 42 e7 bb
       -0.4820685 0.032803666 0.074127704 -0.007057448
0001e0 8c d9 2a be 56 15 3d bd 54 73 50 bd 70 68 9e bd
       -0.1668455 -0.046162926 -0.050891235 -0.077347636
0001f0 af e4 5f bd 69 9f c2 bd 85 a1 9a 3d c9 2b a0 bd
       -0.05466145 -0.09503061 0.07550339 -0.07820851
000200 a1 c9 0e be 94 03 69 bd a8 c1 be bb 09 5a 93 bd
       -0.13944103 -0.056888178 -0.0058214255 -0.07194907
000210 d7 c1 45 bc b7 53 42 3d b1 89 6d bc 73 9f 78 bc
       -0.012070141 0.047443118 -0.01449816 -0.015174734
000220 7b 2b 85 bd 1a 4e 04 be d9 51 a5 3d 6c fc 02 3d
       -0.06502434 -0.12920418 0.08072252 0.03197901
000230 b9 a1 72 bd f3 a1 8b 3d 1a b1 a9 bd ea 76 d8 3c
       -0.059236262 0.06817999 -0.082857326 0.02642389
000240 20 2e 83 bd 43 46 c6 3c bc f3 81 3d 23 e0 1a 3d
       -0.06405282 0.024203425 0.06345317 0.03781141
000250 ca 12 01 bd 78 d3 0d 3c 89 7d b9 bd 0c 3f fe bd
       -0.03151206 0.008656375 -0.09057147 -0.12414369
000260 bd 99 36 3d 34 19 9e 3d 32 f2 ad bd 0d 16 18 bc
       0.04458021 0.07719651 -0.08493461 -0.009282601
000270 1e d1 95 3a cc 02 fa bb 0c ee 81 bb 6b 91 0b 3e
       0.001143012 -0.007629728 -0.003965145 0.13629691
000280 5d 57 81 3c 26 79 41 3c 0b ab 03 3d 87 8c f9 3b
       0.015788728 0.011808669 0.03214554 0.007615629
000290 13 44 db 3c a0 19 2f bd 5c 71 40 bd 04 65 31 ba
       0.026765859 -0.042749047 -0.046983108 -0.00067670667
0002a0 1c 50 21 3d 9e d9 20 be 4b e1 50 3d 4c 98 00 bc
       0.03938304 -0.15708014 0.050996106 -0.00784881
0002b0 71 7d f9 3d 74 5c a4 3c de 76 44 3d 94 3c 8f 3d
       0.12182129 0.020063616 0.047964923 0.06993976
0002c0 06 b7 18 3e 8e 73 6b 3c 6c af e1 3c 3b f5 97 bd
       0.14913568 0.014370812 0.027549468 -0.07419821
0002d0 ce 78 50 3d 8a 93 71 bd 11 10 cd bc a0 3e b8 bd
       0.05089646 -0.058978595 -0.025032075 -0.0899632
0002e0 78 9c c6 3c f5 52 d7 3c c2 ef 4b 3d 58 de 4b 3c
       0.024244532 0.026284674 0.049789198 0.012443148
0002f0 98 01 df bc da 24 0d bc 7d b5 a1 bd 6e 7e a6 bd
       -0.02722244 -0.008614743 -0.07895944 -0.08129583
000300 04 0c 34 bd bb 06 2f 3d 05 23 e7 bd 7d a9 a6 3c
       -0.04395677 0.042731028 -0.11285976 0.02034449
000310 82 e9 aa bd 24 c5 20 bd bd 7c 9f 3c 73 0c 6b bd
       -0.08345319 -0.039250508 0.01946866 -0.05738492
000320 04 26 1a bd 2f 2b 36 bd 82 8a dc bd 3c e3 02 be
       -0.03763391 -0.044474777 -0.10768606 -0.12781996
000330 47 89 fa bd 87 21 14 bd 49 96 9e bc 27 f8 bb 3d
       -0.12233215 -0.036164787 -0.01935877 0.09178191
000340 65 25 9d bc d7 a1 15 3d 69 e8 f1 bd ec 93 3a bd
       -0.01918287 0.036531296 -0.11811907 -0.045551226
000350 b6 a8 68 bc 3e 08 5a 3d e4 75 91 bd ac d3 9e bc
       -0.01420038 0.053230517 -0.07102564 -0.019388042
000360 40 12 c8 bd 95 84 c8 bd e3 8e 9c 3d a2 01 25 bd
       -0.09769106 -0.09790913 0.07644441 -0.04028476
000370 20 74 9e bc 99 0a 7a bd 19 09 2e bd fd 10 d2 bb
       -0.019342482 -0.061045263 -0.042489145 -0.0064107166
000380 83 93 a4 bd a3 98 97 bd 98 62 73 3d 91 e3 84 3d
       -0.08035948 -0.0740216 0.0594202 0.06488717
000390 ff b8 07 3d 45 97 c2 bd 30 fe c2 bc b6 17 95 3c
       0.03313541 -0.095015086 -0.023802847 0.018199783
0003a0 ee 9f af 3d d0 ee 34 bc 4a 74 f0 3b 46 f7 c6 bc
       0.08575426 -0.011043265 0.0073380815 -0.024287831
0003b0 d1 48 15 be 90 64 fb bc 8e 4c 68 bc f3 13 88 bd
       -0.14578559 -0.0306876 -0.014178408 -0.0664443
0003c0 ab 16 3d 3d f9 4e 81 3c fc 0d 4e bd 65 f6 1a 3d
       0.046164196 0.015784727 -0.050306305 0.037832636
0003d0 57 eb a0 bd 91 de 4b 3c 5a 27 d1 3d 62 23 26 3d
       -0.078573875 0.012443201 0.10212584 0.040561087
0003e0 3f 8c cc 3b 73 9d 99 3c 3a 0e 83 3d 30 f4 13 3a
       0.0062423046 0.018751835 0.06399198 0.0005643992
0003f0 61 55 82 3c 88 c6 93 bd bf fb 30 bd b3 6d c7 bd
       0.015909852 -0.07215601 -0.043208834 -0.0973772

fc2.bias f4 [128]
000000 de 00 a7 3e 24 1e d4 bc bb 6b 23 be 02 06 0b bd
       0.3261785 -0.025893278 -0.15959065 -0.033941276
000010 44 42 49 3e 7a aa a3 3e fc 16 bb bd 25 1b 5b bd
       0.19654185 0.31966 -0.09135243 -0.053492684
000020 7c bd d9 bd e1 fd 9d bd dc 9d 1e bd 45 32 91 3e
       -0.106318444 -0.07714439 -0.038724765 0.28358665
000030 8b 06 75 bd 88 19 b6 3c 3b 0c b7 bd d7 0e da 3e
       -0.059820693 0.022228971 -0.0893788 0.42589447
000040 d8 a5 a1 bd 0b 79 71 3e bd 80 25 bc fb 60 10 bc
       -0.0789296 0.2358133 -0.010101494 -0.008812184
000050 c1 62 8f bd a7 25 a5 b9 61 18 52 bd 7c 63 85 bc
       -0.07001258 -0.00031499306 -0.05129278 -0.01628279
000060 b2 dc 60 bd d6 19 a5 3e 86 51 cf bd 50 09 39 be
       -0.05489797 0.32246274 -0.10122971 -0.18069959
000070 d2 fd ad bd 72 78 01 be c1 54 0a be 92 6a c0 bd
       -0.08495678 -0.12643602 -0.13508894 -0.09395327
000080 dc 34 fb bc e4 2f 10 3e 02 92 24 3d 99 62 40 ba
       -0.030664854 0.14080769 0.040178306 -0.0007338911
000090 4a 9a 8c 3e 69 5c 3c bd 13 82 12 bd a9 a5 62 3c
       0.27461463 -0.045986567 -0.03576858 0.013833442
0000a0 dc 22 20 3d 92 a1 4b 3c a5 95 b9 bd 2a af b5 bd
       0.039095744 0.012428658 -0.090617456 -0.088713005
0000b0 f8 24 00 bc 9c dd 12 be 14 8b b7 bd 02 6d 24 bd
       -0.007821314 -0.1434235 -0.08962074 -0.04014302
0000c0 97 25 9a bc bc 76 b3 bd 16 9e ca bd 9a aa 50 bd
       -0.018816752 -0.08762881 -0.09893434 -0.05094395
0000d0 dc 17 ce bd 24 f6 ae 3c 59 3d 85 3b 94 e4 21 bd
       -0.100631446 0.021357603 0.004066151 -0.03952463
0000e0 2a a2 bf 3e 94 1d 0a 3e a7 64 84 bc b5 4a 2d bd
       0.3742841 0.13487846 -0.016161276 -0.042307574
0000f0 1f cc 0a bd c6 6a 92 bd a1 71 87 3e 3f de 61 bd
       -0.03388607 -0.07149272 0.2645388 -0.05514359
000100 1b 60 a0 bd aa 00 0e be 8a 22 bb bd 53 7d 72 3e
       -0.07830831 -0.13867441 -0.09137447 0.2368062
000110 19 a4 5e 3e 31 4b 99 3e 1b e8 8b bc 67 0a e0 3e
       0.21742286 0.2994018 -0.01707845 0.43757936
000120 00 d0 7c bd a7 ef db 3c d3 4f 10 3b bd 05 78 3e
       -0.0617218 0.026847674 0.0022020235 0.24220939
000130 b4 83 9f 3e ae 7e be bd d6 69 ed 3c 69 e5 a6 3c
       0.3115517 -0.09301506 0.02898113 0.020373063
000140 ab a3 63 bd 74 68 11 be 05 6b 7c 3d 2b 21 60 3c
       -0.055576008 -0.14200002 0.0616255 0.013679783
000150 b0 2d 59 bd 91 12 15 3c 6f 4f cd 3e ed 01 38 3c
       -0.053022087 0.009098665 0.40099666 0.011230928
000160 0b ad bc bd 3f 1f da bd 35 52 42 bd 26 51 00 be
       -0.09212693 -0.10650491 -0.04744168 -0.12530956
000170 d9 a0 2a bd 48 55 b4 3e a5 ce 2c be 89 48 02 bd
       -0.041657303 0.35221314 -0.16875704 -0.031807456
000180 7b 28 95 3e 5c a3 04 be ef f8 a6 3e d6 7a 09 be
       0.29132447 -0.12952942 0.32611796 -0.13425764
000190 7e c9 fd bc 8d ac 97 bd ce 20 46 3c 03 08 0b bc
       -0.030979868 -0.07405958 0.012092782 -0.008485797
0001a0 63 74 ed bd 8d ec 1d 3c 63 57 ef bd 25 92 f9 bd
       -0.11594465 0.009638918 -0.116865896 -0.12186078
0001b0 b5 c3 4c bd cf b4 97 3c 09 97 a3 bd 51 1e 88 3e
       -0.04999133 0.018518833 -0.07987792 0.2658563
0001c0 4f 41 c3 bc 1d ce 31 3d f3 7c f2 bc fd 4a f5 bb
       -0.023834853 0.043409456 -0.029600596 -0.007485746
0001d0 a8 28 82 bd 2c 08 ff 3c 8e e1 b4 3e b4 15 c3 bd
       -0.06355411 0.031131826 0.35328335 -0.09525624
0001e0 9a 92 00 3d 38 5a ec ba 8a dd 8a 3e 9d 7f 91 3c
       0.03138981 -0.0018032258 0.27122146 0.017761046
0001f0 16 17 78 bd 0f d3 8f bd 70 78 ab 3e 9c 78 d2 bb
       -0.06056889 -0.07022678 0.33490324 -0.006423069

fc3.weight f4 [2, 128]
000000 43 41 72 3f d4 23 93 3c 12 db ef 3e 54 d5 fa bc
       0.9463083 0.01796142 0.46846825 -0.0306193
000010 aa 93 82 3f 0d a7 81 3f 83 9e 16 bd 4f 90 03 bd
       1.0201313 1.0129105 -0.036772262 -0.032120045
000020 9f 05 c7 3c 08 46 29 bd 75 03 47 3a c2 f2 f1 3e
       0.024294673 -0.041326553 0.00075917627 0.47255522
000030 35 2f 16 bc 46 bb 7e bb 76 bc 2b 3b dd da c0 3e
       -0.0091665285 -0.0038868948 0.002620486 0.3766698
000040 4b f2 80 bd fe 50 d1 3e 5e 9d ed 3c c0 0e 19 bc
       -0.06296214 0.40882105 0.029005703 -0.009341896
000050 53 0c b9 3a ec 89 0c 3c 70 bb b5 3e 12 1d 6d bd
       0.0014118053 0.008577805 0.35494566 -0.05788905
000060 38 69 46 3d 37 b3 03 3f 66 db 9b bd 96 37 c3 be
       0.04844019 0.51445335 -0.07610206 -0.38128346
000070 cb 41 ba bd f5 ad 78 3f 91 98 e9 bb 7a 52 27 bd
       -0.0909458 0.9714044 -0.007128783 -0.04085014
000080 d5 c0 b4 3b 73 cc d2 3e 8d a5 15 3c 5e 32 df bc
       0.0055161514 0.41171607 0.009133709 -0.027245697
000090 f7 ac aa 3f ac 0c ad bd da b1 b0 bb c6 77 0d bd
       1.3334035 -0.084496826 -0.0053922953 -0.034538053
0000a0 ff f2 47 3d a4 43 22 3c 33 bc 95 bd bb 36 88 3c
       0.048815724 0.009903822 -0.07311287 0.01662766
0000b0 dc b5 4a 3d de 0c 8d 3a 88 37 25 b9 94 9f fe 3b
       0.04948984 0.0010761281 -0.00015756313 0.007770488
0000c0 2a b5 bc 3c 4e 9e 64 bc a4 b5 27 39 c8 81 68 bd
       0.023035605 -0.013953758 0.00015994027 -0.056764394
0000d0 7d 6b fe bc 2a c3 11 3d fe 8b b3 3b 7f 0a da bc
       -0.031057114 0.035586514 0.005479335 -0.026616333
0000e0 53 e4 01 3f f5 6e 51 3f 9b 2d d3 3c fd 93 21 bd
       0.5073902 0.8180993 0.025778582 -0.039447773
0000f0 7d f9 17 3e 25 3b af 3b d5 45 81 3f 08 87 3f bd
       0.14841266 0.0053476267 1.0099436 -0.046759635
000100 52 e9 0b 3d a8 4d 72 be c3 9c 7e 3d 76 95 80 3f
       0.03415806 -0.23662436 0.06216122 1.0045612
000110 0a 0e 88 3f 91 77 f5 3e 77 aa e0 3a d7 76 ce 3e
       1.0629284 0.47942784 0.0017140646 0.40325043
000120 fb e0 80 bd 41 7e d1 3b bd 15 d1 bc 01 62 82 3f
       -0.062929116 0.0063932245 -0.025523061 1.0186158
000130 a3 1c f5 3e 90 d1 19 bd 51 c3 73 3c 36 f2 ec bb
       0.4787341 -0.03755337 0.01487811 -0.007231022
000140 40 3b 55 3d 43 45 01 bc 30 84 08 3d 9d 97 1c bd
       0.05205846 -0.007890048 0.03332919 -0.038230527
000150 93 55 cd bc 72 ee cd bc 13 a7 d3 3e b9 ab 60 bb
       -0.025065219 -0.025138114 0.41338405 -0.0034282042
000160 9b 68 04 3d 75 42 c8 3c 3d 53 a1 3d ff a1 24 bc
       0.032326322 0.024445752 0.078772046 -0.0100483885
000170 15 86 a4 ba fd f9 8a 3f 80 ff 9d bf a7 3b 12 c0
       -0.0012552167 1.085754 -1.2343597 -2.284891
000180 26 9f 54 3f e3 27 08 3d a5 54 2a 3f 2f 45 4a 3e
       0.8305534 0.033241164 0.6653541 0.19752954
000190 ce bf 7d 3c af 6f 1c bd e7 f7 f5 bb c9 66 c2 bc
       0.015487624 -0.038192447 -0.007506359 -0.023730652
0001a0 4f 62 a9 bc cc 0f 06 bc f2 3e 74 3c c0 94 87 b9
       -0.02067676 -0.008182477 0.014907585 -0.00025860034
0001b0 3a 14 16 3c e2 49 57 bc bd 0d 92 bd cf e6 62 3f
       0.009160096 -0.013140174 -0.071315266 0.88633436
0001c0 f0 b0 19 3c b0 e8 0d bc e1 13 bf bd e4 14 f7 39
       0.009380564 -0.008661434 -0.093299635 0.00047127076
0001d0 40 94 e2 3c 62 e8 fc 3c 9a 40 58 3f 58 4c 4d 3d
       0.027658582 0.030872528 0.84473574 0.050121635
0001e0 03 d3 92 3c 4d 23 b6 bc 93 60 68 3f 16 b1 46 bd
       0.017922884 -0.02223363 0.9077236 -0.048508726
0001f0 e5 e1 76 3c ac 5e 8f 3b 28 b0 ee 3e 5e 2c bf bc
       0.015068506 0.0043752994 0.46618772 -0.023336586
000200 18 46 47 3f c6 8b 93 bb e6 36 21 bf 91 3d 5e 3d
       0.7784133 -0.0045027463 -0.62974393 0.054257933
000210 bb 65 47 3f 26 06 87 3f b5 aa a5 bd 21 88 77 b8
       0.77889603 1.0548751 -0.080892004 -5.901617e-05
000220 d4 fe 66 ba 31 c4 be 3b dd 9b d1 bd cd 10 cb 3e
       -0.0008811776 0.0058217277 -0.10234807 0.39661255
000230 77 97 1b 3d 97 25 79 bc d0 86 44 bd 96 35 c4 3e
       0.037986245 -0.015206716 -0.04798013 0.38322133
000240 5f da 22 3d fd 1c 52 3f cb b0 ff b9 a5 13 78 3c
       0.039759036 0.8207548 -0.0004876911 0.015141402
000250 14 ed 9a bc 9e 7d 5b 3b 56 4b d8 3e f2 20 c3 bb
       -0.018911876 0.0033491622 0.42244977 -0.005954855
000260 2e d2 28 bd 47 17 46 3f dd f0 37 bb 17 d6 93 be
       -0.041216068 0.7737927 -0.002806715 -0.28874275
000270 9b 9c fc bb ed bd 50 c0 b3 c5 83 3d 15 9d 67 3c
       -0.0077090985 -3.2615921 0.064341925 0.014136572
000280 9a ca 05 bb 5b 61 31 3f 0e 6f 19 bc 47 0e d4 3d
       -0.002041495 0.6928918 -0.009364856 0.10354286
000290 0e ec a6 3f f0 d2 dd 3d ae 18 5d 3c 4a fc 96 3c
       1.3040788 0.10831249 0.013494654 0.018430848
0002a0 99 b0 7d bd fa d0 37 3d 34 51 ad bc d1 9d 60 bd
       -0.061935995 0.04487703 -0.021156885 -0.054838005
0002b0 d9 51 9f 3c 78 69 eb bc 03 6d ab 3d 3a 8b 2f bd
       0.019448208 -0.028736815 0.08370402 -0.042857386
0002c0 24 b5 f6 bc 27 2c 67 3b 93 f6 4b 3d 71 79 25 3d
       -0.030115671 0.003527412 0.0497957 0.04039902
0002d0 5b c3 69 bd 3e 24 21 bc 68 4a ae bb a6 32 89 bd
       -0.05707107 -0.009835301 -0.0053189285 -0.066991135
0002e0 95 f6 af 3e d0 d5 fd 3e ee 71 42 bd 0b 9d b2 bd
       0.34367815 0.49577188 -0.047471933 -0.0872136
0002f0 d9 75 00 3e 7b 91 0b bd 0a 3f 96 3f 28 0c 21 bd
       0.12544955 -0.034074288 1.1737988 -0.039318234
000300 03 91 07 bd 53 2c 20 3f 75 0e 16 3c 6b d4 3b 3f
       -0.03309728 0.62567633 0.00915872 0.73371
000310 a1 dd 6b 3f 99 9a a6 3e 35 53 16 bc 2a e4 bb 3e
       0.92135054 0.32539824 -0.009175112 0.36697513
000320 c6 61 4d 3d 9f 6c cf 3c 18 44 8a 3c 5f 34 67 3f
       0.050142072 0.02532035 0.016878173 0.90314287
000330 93 c8 0e 3f 8d 62 4d bd 57 d7 3f 3b bd ee 05 3d
       0.557748 -0.050142813 0.002927264 0.03269838
000340 cc 67 b3 3c ba 05 87 bd fe 68 1b bd 12 f8 81 bd
       0.02190008 -0.06592889 -0.037941925 -0.06346144
000350 a0 92 d2 3c ed b5 9a 3c 69 18 a7 3e c3 51 36 bd
       0.025704682 0.018885577 0.3263581 -0.044511568
000360 40 15 8b bd f7 79 23 be b8 bd 53 bd 87 93 b1 bc
       -0.067911625 -0.15964495 -0.0516946 -0.021676792
000370 f9 d1 31 bc 36 b6 32 3f 32 f5 1a 3f 03 4d dd 3e
       -0.010853284 0.6980928 0.6053039 0.43222818
000380 a0 b6 86 3f 74 a4 b4 3c 46 3d 89 3f 13 48 90 3f
       1.0524483 0.022051074 1.0721824 1.1271995
000390 be d7 97 39 c9 c4 ee 3c 81 f2 62 3b 97 de ee bc
       0.00028961705 0.029146569 0.0034629407 -0.029158873
0003a0 39 68 82 bb 43 76 07 bd f2 0b 85 bc a3 3d f8 bc
       -0.0039797095 -0.033071768 -0.016241048 -0.030302828
0003b0 2b ee e3 bb b5 1a 6e bc df a5 84 3d 7b f4 8a 3f
       -0.006955882 -0.014532735 0.0647695 1.085586
0003c0 91 1e b9 bd c5 06 fa 3c 63 a8 54 bf f5 ea 6c bd
       -0.09039033 0.030520806 -0.8306944 -0.05784126
0003d0 67 49 4a 3d 1f 07 17 bd ba 73 82 3f 2a 54 93 ba
       0.04938641 -0.036872026 1.0191567 -0.0011240293
0003e0 ab 54 5d bc b6 8f ca 3d 37 32 81 3f f3 76 f2 3c
       -0.013508956 0.09890692 1.0093449 0.029597735
0003f0 72 71 9b bd c1 e5 89 3c 54 a9 9d 3e 86 89 71 3c
       -0.07589997 0.016833188 0.3079325 0.014742261

fc3.bias f4 [2]
000000 eb d8 c9 3e 07 36 0e 3f
       0.39423308 0.5555119
